trained_model.pt (torch, 6415 bytes, 10 tensors)

lift.weight f8 [10, 4]
000000 26 77 71 e0 7b 91 c7 3f 3d 45 40 54 1e 4b d1 3f
       0.1841273160852605 0.2702098677410339
000010 0d 36 af be ee ca d1 3f 5d de 17 6a 18 a6 c7 bf
       0.27801102277302975 -0.18475632839521242
000020 9c df c4 d9 5e 95 c5 3f 72 d2 2f e8 e0 b6 d4 bf
       0.16862092622045288 -0.3236620204400317
000030 41 ba 3f f9 b9 8e e5 bf f0 77 1f 3c 11 20 c4 bf
       -0.6736726635115887 -0.15722861705484048
000040 f7 40 95 01 d0 58 d7 bf 63 af c3 ca a8 31 cb bf
       -0.36479568628875775 -0.2124529829082987
000050 e5 b0 6d cc 00 0c a1 3f 42 c1 1f c8 c2 3b ba bf
       0.03329470153298234 -0.10247437845078358
000060 92 8d 69 82 51 2c b9 bf 0c c1 53 a1 3b d0 e2 3f
       -0.09833249505896038 0.5879190588875942
000070 f0 bf ea 69 ea 19 e2 bf bd 29 23 1d ec 36 92 bf
       -0.5656635349932895 -0.017787637022402814
000080 1e ad bc 02 29 d5 e0 bf 16 c2 20 17 fc 38 d5 3f
       -0.5260205319840769 0.33160307177152626
000090 43 4e 3e 01 e6 fd c2 bf e6 dd 8f a9 7b da aa bf
       -0.1483733659812164 -0.05244814343307862
0000a0 cb 32 bc de 04 2e cf 3f 60 f8 61 e6 20 0f c1 bf
       0.2435918891500449 -0.1332741856494435
0000b0 6e f8 e3 19 3f cd a2 3f b4 17 fa 9e 17 4d d4 bf
       0.03672215643926867 -0.31720533871736767
0000c0 3a e2 65 6d 27 be db bf e5 84 53 83 4d f8 cd bf
       -0.4334810798968963 -0.23414009964384444
0000d0 1d 4b 08 c6 8b 12 e5 bf e9 4a df 69 a3 52 8d 3f
       -0.6585139148540723 0.014317776363815553
0000e0 5b 12 dc 95 fe 8c c4 3f af 44 07 d9 a3 ea e1 bf
       0.1605528098808858 -0.5598925818286683
0000f0 d7 72 f2 1f 36 1b c0 bf 51 63 08 37 5a f5 c6 3f
       -0.12583042678752207 0.17936256110331297
000100 c4 59 d4 88 fb 1a da bf f7 b2 e6 4c 13 f0 a6 3f
       -0.4078968845582518 0.04480037988409962
000110 9f c3 02 dc bb 4b e4 3f b5 c6 77 1b 73 ed ad bf
       0.6342448517881286 -0.058452221968662434
000120 61 fa 66 50 1f 0e d6 3f 52 59 ff c6 7b c1 d6 bf
       0.34461195804389005 -0.3555592959723032
000130 d8 ed 12 87 56 28 c3 bf 4d ad b0 9b 09 42 8a bf
       -0.14966851802260694 -0.012821269096170563

lift.bias f8 [10]
000000 cd 2c 58 e6 b3 e1 cf bf 67 a7 48 b0 ef ef d4 3f
       -0.24907540080344007 0.3271445485612418
000010 17 f4 61 6f 65 21 b2 3f dd 18 f3 fb a1 3a c7 3f
       0.07082208604147443 0.18147682955004188
000020 81 b1 4d c0 be 3d c2 bf b6 2f 81 b1 7b bc c7 3f
       -0.14250931157893024 0.18543955008715124
000030 79 7f a2 3c 07 b9 e3 3f 78 1e 2f c3 18 d2 bb 3f
       0.6163364586136445 0.10867457165942962
000040 20 ff 7e 5c 2b 25 c2 3f 65 c5 ac 1a 36 86 ac 3f
       0.14175931946191955 0.05571145129796199

linears.0.weight f8 [10, 10]
000000 18 e6 ce f7 2c d3 b0 bf b0 aa 36 8b eb 60 da 3f
       -0.06572228479389997 0.4121655330188032
000010 77 65 eb 1f b5 52 b2 bf 27 10 81 86 1c f0 ce bf
       -0.07157451657567103 -0.24170261924348432
000020 89 12 5d 51 d0 2f de bf 88 b8 d3 74 ce f5 ce 3f
       -0.4716683191839271 0.24187641815609973
000030 63 67 74 5d d0 9b c9 bf c6 ac 70 f5 12 5b de 3f
       -0.20006756365983866 0.4743087193371135
000040 ec 29 8b da 14 c9 c8 bf 5f 8c db 14 e8 68 d8 3f
       -0.19363651915621405 0.3814029887855152
000050 4d c9 87 f9 b7 36 96 bf 97 6a d0 0b c5 97 d2 bf
       -0.02169311008942403 -0.29051328805659565
000060 c5 81 df f7 0d 2f 92 bf 2d 73 f8 42 4f 48 dd bf
       -0.01775762391469173 -0.45753842868889444
000070 5a d9 f9 75 5d b1 d6 bf c8 cc 4f f6 2d 24 da 3f
       -0.35457550545779315 0.40845822385672337
000080 0f 33 8a 86 7c a5 c5 3f 9c 3f fb 38 5b 1c d3 3f
       0.16911274499252513 0.29860573353379904
000090 0f ad 7b ef 42 35 d2 3f 86 82 50 a9 42 5b be 3f
       0.28450082194349674 0.11858002313284474
0000a0 a3 6c a8 d7 d0 7b c3 bf f5 2c 19 ac 68 78 c3 bf
       -0.15221605806514046 -0.15211208728064887
0000b0 3f 5a 79 2c 75 40 c4 bf c9 c5 2a 8b b4 59 d1 3f
       -0.15821709319671304 0.27110017385993196
0000c0 c4 64 b5 f9 45 39 b6 3f 2e 88 d0 d7 ef 57 cf 3f
       0.0868114218368588 0.24487112081357182
0000d0 28 a9 67 23 e3 29 c6 3f e5 81 c3 aa 9d 06 d0 3f
       0.17315329769855592 0.2504038016905084
0000e0 7a 24 58 b8 71 fe ba 3f ae de ad 41 a9 93 bb 3f
       0.10544501066773818 0.10772188046928008
0000f0 3c ba 58 f9 e1 ab d7 3f 70 44 c9 65 df 14 d6 bf
       0.3698658881211576 -0.345023965263926
000100 d2 83 88 92 34 b8 ce bf a9 e8 de 02 b5 73 d2 bf
       -0.23999650149292379 -0.2883121994051501
000110 e7 1c b6 6f a0 54 db bf 8f f6 d9 f9 cd c0 c6 3f
       -0.4270402041369849 0.17775892925049105
000120 46 85 ab 55 4d 09 e1 bf 81 84 97 fd e5 35 c6 3f
       -0.5323855088464959 0.17351984865584671
000130 0e de fd cc 53 18 ae 3f 96 84 ef aa b4 c2 c7 3f
       0.05877935292567936 0.18562944742646853
000140 4e 5c 61 be bf f7 c4 3f a1 d7 51 e0 15 c0 ad bf
       0.16381069942392162 -0.0581061207130198
000150 2a c6 e9 9b 4a 5e d4 bf b3 34 db 02 4a 5a d9 bf
       -0.3182550928678177 -0.3961358096974649
000160 9f 23 0d ce ea 0b c4 bf c1 ce 25 7f 94 b9 be bf
       -0.15661368428325503 -0.12001922706786684
000170 a8 c4 18 17 94 5d dc bf 39 0a 1f ab 39 cf ba bf
       -0.4432115769914824 -0.10472450664296042
000180 6f 46 f4 94 b5 9b a3 bf 54 a0 d7 b0 31 0a be bf
       -0.03829734271324702 -0.11734304969252324
000190 3c fe f2 d6 14 66 c0 bf 23 60 96 2e 00 7f d9 3f
       -0.12811527724805838 0.39837650823165144
0001a0 76 f7 40 ed d1 fd b4 bf 68 dd 44 0e ec b4 d2 bf
       -0.08199798624351992 -0.29229260819871294
0001b0 a8 ca b4 7b 67 84 d2 3f d0 58 1b c8 a3 46 ca bf
       0.28933131294904024 -0.205280754764948
0001c0 38 df eb bf f6 db c7 3f fc 1a b3 6b b7 41 d2 3f
       0.18640026446495894 0.28526101605932275
0001d0 4d 0e 0a a3 32 a2 c7 3f a6 04 93 b4 2d 2e a0 3f
       0.18463738404180888 0.03160231427455899
0001e0 f6 58 6e a9 0d aa ca 3f bc b2 4c 63 df c8 d2 3f
       0.20831461689949266 0.2935102910731009
0001f0 85 4c 8b 9a 2b 05 e8 bf 03 83 ba 6d 8f 8b d7 3f
       -0.7506311434211886 0.367893082768248
000200 ae 1d ba 5e 6f c8 c0 bf a1 19 fe b7 a3 22 d3 3f
       -0.13111679196684406 0.29898922889733553
000210 c7 77 0b cc 39 4f c0 bf ae 9c c6 95 d3 ca d5 3f
       -0.12741777861714196 0.3405045473723004
000220 6a 79 5e 13 60 d6 ed bf 81 44 8f 0a ab 9b e0 3f
       -0.9324188593198361 0.5190024572604132
000230 0b e2 50 e9 71 f8 d8 3f d5 1e 0a 4f 45 2d b5 bf
       0.39016387734184893 -0.08272202663112734
000240 17 d1 dd 66 17 e7 c7 bf 17 92 f0 a0 ac e5 d3 bf
       -0.1867398502614683 -0.3108932086636584
000250 8e 3d c5 95 76 cb d3 3f 3b e1 7c 50 1c 94 d3 bf
       0.30929340959570417 -0.3059149538053309
000260 2c ae b0 87 b6 21 dd bf 86 60 e8 d7 1b fb d0 bf
       -0.45518267870895346 -0.26532646260012205
000270 71 ba 9b 67 9d 8b d7 3f 17 90 84 0f b8 2a d7 bf
       0.36789641492843034 -0.36198236003315415
000280 e6 d1 9e db 55 1a 7a bf bc f6 45 73 32 a1 bb 3f
       -0.006372771627799234 0.107928422110457
000290 ef a4 0e ab c7 c0 d1 bf 5c 4d 56 8f eb de df bf
       -0.277391354606677 -0.49798096654668256
0002a0 f3 e4 fa c9 77 b0 ce bf 22 79 8a a9 f6 29 c3 3f
       -0.23976037370974942 0.14971812513699329
0002b0 7b c8 f4 9a 11 ef de bf f8 ff 44 7e 22 e9 cb 3f
       -0.48334159977378705 0.21805220761780197
0002c0 26 4a 46 9b 89 c0 cf 3f 4b da f3 ea 7c 85 cc 3f
       0.2480632789780241 0.22282372925083602
0002d0 7f 1e ea 38 bb 06 a4 bf 29 f0 4b f6 30 34 90 bf
       -0.03911385602719707 -0.01582409384990072
0002e0 b2 2e fd 48 cc eb e4 3f 53 18 7c 47 f0 64 f1 bf
       0.6537839341703686 -1.0871432106373689
0002f0 c8 b4 4f fc d5 68 ba 3f 78 0d d1 e4 69 2b 67 bf
       0.1031621685976517 -0.0028283184279033723
000300 ec 6e 82 6e 2f aa d3 3f 5f 7a d3 13 e3 58 e0 3f
       0.3072622851557145 0.510850466463875
000310 b1 c7 0f cd 6d e8 ce 3f 4f 9e 1f bc 86 4b c9 3f
       0.24146816742682867 0.19761738000601034

linears.0.bias f8 [10]
000000 9a 14 f9 59 e1 0c a5 3f 1d 66 84 50 e5 7a b1 3f
       0.04111389373114456 0.06828149047614614
000010 ca 09 fa 99 02 2d a9 3f 0c e9 8f dd 89 ee be bf
       0.04917152528379949 -0.12082730921966717
000020 6a 9e 84 fb 6b 71 e1 bf 6a b2 00 be 45 0b e2 3f
       -0.545095435377289 0.5638760291090652
000030 36 32 23 1f 52 f2 d2 bf 23 ff 99 08 55 d5 ec bf
       -0.29604008713502894 -0.9010415237425814
000040 84 cd 40 59 27 22 da bf e7 fe da d5 26 43 e1 bf
       -0.4083345767605453 -0.539447229086332

linears.1.weight f8 [10, 10]
000000 4b bc 3a 07 83 fd c9 3f f6 e4 cb ae 8b a3 d2 3f
       0.20304906704902445 0.29123203344313653
000010 c3 80 6a 79 64 90 c2 bf 2a 49 a6 bd ce e9 e1 bf
       -0.14503150871769863 -0.5597909645169115
000020 a0 41 4f f1 0a 43 bf bf c3 2f 31 f1 61 68 c6 bf
       -0.1221167410979036 -0.17506050373992652
000030 b7 32 45 2e 7b 80 e1 3f ac 94 6f c2 26 b7 d6 3f
       0.5469337371556183 0.35492867458226374
000040 c5 7e f0 9a 15 45 e0 bf 82 74 75 81 93 e1 d0 3f
       -0.5084331537400081 0.26376807825528925
000050 29 16 0e c8 af 11 9f 3f 0d 62 63 c0 2d 01 e1 3f
       0.030340906701459645 0.5313938863355944
000060 9a 0e df 78 70 92 d5 3f 44 27 3a 6d cc 7a 6b 3f
       0.3370629482635451 0.003354453345143423
000070 a1 a6 e2 c3 16 19 c5 bf c4 7f f9 b0 7f 3c c3 3f
       -0.16482815327372172 0.1502837766774957
000080 0f 51 e9 77 cd 8e a0 3f d2 92 4f ce de 50 b1 bf
       0.0323394974590504 -0.06764023339162442
000090 49 9a 4b 61 59 8c c8 bf 88 bc 15 27 c9 e3 eb 3f
       -0.19178311587093536 0.8715558780076131
0000a0 53 ba fc c9 5d 6d d9 3f db 27 35 4b c3 ab b9 bf
       0.39730019307436243 -0.10027714334606179
0000b0 4b 09 1a b0 a1 f6 ca 3f 51 49 71 46 d2 4f da bf
       0.210651598918114 -0.41112191085007505
0000c0 0f c2 3f 1f b9 44 e4 bf 1b a3 cd 05 fd a1 de 3f
       -0.633389054330168 0.4786369854614791
0000d0 30 28 8e 98 9b 8c aa bf 84 2e 10 30 df 5c d8 bf
       -0.05185400235411952 -0.3806684464804919
0000e0 69 76 1d 75 0b 55 ce bf 40 73 b1 d3 65 9c be bf
       -0.23697035997877272 -0.11957394045152814
0000f0 f8 a8 15 5c f7 fd d9 3f 1f 69 6a 43 c8 6a d7 3f
       0.4061258696807637 0.3658924730640524
000100 4b 69 20 7c 79 20 ae 3f 8d a9 b1 2e 60 ec de 3f
       0.05884151115624777 0.4831772285457639
000110 95 de 14 e8 b6 8d c0 3f 12 58 ce 70 2e c3 a9 bf
       0.12932478267770323 -0.05031724097277403
000120 ce 75 32 1a 54 ab b4 bf 4d d2 2f 79 11 bc dc bf
       -0.08073926581933863 -0.4489787753548498
000130 7c 77 c6 61 23 69 c7 3f 79 b4 76 21 0d 1f b1 bf
       0.18289606355841304 -0.06688005511269236
000140 37 a6 db 08 89 85 c5 3f be 15 e2 56 e8 db d1 bf
       0.16813767368812346 -0.27904709324533516
000150 ee 77 9a 02 44 9d ca 3f 00 70 30 22 2b d4 d8 bf
       0.20792436720961355 -0.3879497369650835
000160 63 cb 98 c1 c3 41 c8 bf f4 a7 d1 2d df b0 d1 bf
       -0.1895069785401474 -0.27642039751537983
000170 79 91 65 84 2d 9b ca 3f eb b6 92 d4 fb 68 d2 3f
       0.20786065067944628 0.28765769728748464
000180 f4 e5 3e 39 a3 d8 d0 bf 51 83 95 11 d1 ee cc bf
       -0.2632225092926028 -0.22603810652347048
000190 f2 d3 76 b5 f4 f8 9d bf 4e d5 27 c2 24 24 9c 3f
       -0.029270003867811263 0.02748162684470872
0001a0 3d 31 c5 ff c6 a3 cf bf 10 12 1c 2d 36 60 d0 3f
       -0.2471855877760251 0.25587229161490743
0001b0 b4 44 39 09 68 81 da 3f 30 79 59 3a 21 d8 c9 bf
       0.41414833927872086 -0.20190825795266099
0001c0 66 66 7f c3 e2 cf e2 bf 54 61 bf 5f 94 a1 c7 3f
       -0.587876684028015 0.18461851763891934
0001d0 7d e3 5b 3f 97 f9 d7 3f 13 4a c2 f2 9b 3d b1 3f
       0.3746088141193054 0.06734633137447359
0001e0 75 b8 a8 c6 74 9a e6 3f 2f 88 1f 0f b0 cb d0 bf
       0.7063545112666946 -0.2624321124732231
0001f0 a5 99 67 a9 f3 96 b2 3f 70 e3 a5 8b b0 ed ad 3f
       0.072615841730658 0.05845405296981354
000200 23 21 ab 09 ef 7a b7 bf b8 df a2 86 a2 5b e1 3f
       -0.09171957002684343 0.5424358968366425
000210 6e 8c 56 b8 be 8f 68 bf f3 34 79 d3 e9 2a e3 bf
       -0.0029982304574374596 -0.5989884500828836
000220 5e 82 1f ad 53 a1 cd bf 15 b6 42 d8 d4 56 c6 bf
       -0.2314858050658754 -0.1745248847923199
000230 64 2c 65 c6 01 ae d5 bf 43 13 98 00 eb 53 ce bf
       -0.33874554037601556 -0.23693597344404269
000240 81 0e fa ae f8 6e c3 3f ad 8f 72 9d f8 5b ae bf
       0.151824078977473 -0.05929543420759784
000250 24 d5 07 1c 87 9b e1 bf 79 b2 65 9f 01 42 d9 3f
       -0.5502353236649111 0.3946537071813406
000260 a5 0c 96 f7 d3 89 d4 3f d0 85 6c 9e 20 b3 e1 bf
       0.32091235330899287 -0.5531161398141027
000270 d0 10 95 1b 42 5f e1 bf c7 b9 4f e9 88 da ef bf
       -0.542878202315956 -0.9954266125549162
000280 b1 14 e9 04 ef 67 e5 3f f0 e3 9d 9f fd bf a6 3f
       0.6689372154147774 0.04443352292486924
000290 bd 9d 7d fc e5 fc a8 bf 08 fe 13 27 35 c5 bb bf
       -0.0488044615474865 -0.1084778995900636
0002a0 e8 f6 92 97 1d dc ba 3f 4c 15 9c 4b 21 84 d8 bf
       0.10492119741953909 -0.3830645788551308
0002b0 14 0e 1b 2e 10 c0 b2 bf 08 b7 53 5f 92 be b2 3f
       -0.07324315190913239 0.07322039439506167
0002c0 b9 17 95 5c 43 cb dd 3f 89 c8 78 c3 38 76 e5 3f
       0.46553119698762263 0.6706813638504779
0002d0 a2 c4 9e 90 71 f0 e1 3f dd 0b 4a a9 d7 e9 ad 3f
       0.5606010269749684 0.05842470113295637
0002e0 9b df 79 00 f3 dd d1 bf c4 38 e2 bb e9 82 dd bf
       -0.27917170568934474 -0.461115296821742
0002f0 f7 0e cf a0 03 34 e5 bf de df 6f 69 56 d7 da 3f
       -0.662599386291247 0.41939316078742006
000300 81 9f 46 4b 31 68 9c 3f 6f b3 6c a1 c2 f5 9c bf
       0.027741213054155892 -0.028281251051498865
000310 82 9d 25 41 27 00 d0 bf 1b ad 26 fb 24 85 c2 3f
       -0.25000935899739585 0.14468824637638353

linears.1.bias f8 [10]
000000 a3 a0 bb 37 00 6e ce bf cf 21 69 89 45 62 cf 3f
       -0.2377319595464132 0.24518651208405948
000010 c0 ef 56 3b 1c 5d d5 3f 23 77 8e e7 f7 c7 b9 3f
       0.33380800051577 0.10070752528414721
000020 ba f2 53 83 7d 71 d2 bf b7 70 b0 2b 4a 56 d0 bf
       -0.28817689728729656 -0.25526670710111027
000030 d3 13 28 68 5c 5a e1 3f 4c 23 01 1e 96 ef dd 3f
       0.542280391150252 0.46774819307443205
000040 f9 e9 a4 11 f0 55 dd bf 77 79 2f 6f 51 ab cf 3f
       -0.4583702251726716 0.24741571358658707

linears.2.weight f8 [10, 10]
000000 63 08 07 c7 79 ab e2 3f 70 29 f8 31 6e 12 c5 3f
       0.5834320914511973 0.16462495269690747
000010 9c d7 95 a7 e5 2c e2 3f 5d 64 43 3c 14 3c cd 3f
       0.5679806016112141 0.22839596693555367
000020 51 02 84 e7 a1 11 b6 3f 11 fc e5 b5 99 d6 e2 bf
       0.08620654966581155 -0.5886963417723355
000030 cb 05 59 e2 49 63 db 3f 44 e1 3c 15 3a 19 ce 3f
       0.4279350958277887 0.23514486348154595
000040 65 16 a4 c4 24 e7 d2 3f ff 12 b8 5a c5 1a e6 3f
       0.29535788729876905 0.6907679340225455
000050 06 cd b8 a0 e4 aa a1 bf 06 6d 9f d5 5a 17 b7 3f
       -0.034506935710306094 0.09020011630439137
000060 e5 10 43 48 43 e6 de bf f4 61 b3 9d de 3e 8d 3f
       -0.48280412728150984 0.014280070483821718
000070 dc 13 1f ec ce a8 d6 bf 35 bb 98 79 72 1a db 3f
       -0.3540532403824821 0.42348920702618226
000080 f3 12 18 bb d7 81 ca bf a1 36 82 67 a4 66 b9 3f
       -0.20708748469782953 0.09922244574610285
000090 56 1a 58 86 07 cd 94 3f d5 37 50 e7 2e 18 d7 bf
       0.02031337506744032 -0.36085102643198513
0000a0 e5 3d a8 8b 86 e2 d9 bf 80 47 76 00 0a 88 b0 3f
       -0.4044510234679975 0.06457579146652215
0000b0 2e 43 14 44 92 b3 ce bf 2a 0e c5 53 e7 5c d5 3f
       -0.23985508274247408 0.33379538708342926
0000c0 8b c7 2f c9 db a4 9e 3f 22 86 0a 9f 07 4c e0 3f
       0.02992576041646759 0.509280977847258
0000d0 fe a9 a0 99 7d 7e ae 3f bb 29 be da 99 1e e3 bf
       0.059558796885841744 -0.5974854729004656
0000e0 25 b0 e9 d4 b4 a8 d3 3f 13 98 ab 50 3a 8a c1 3f
       0.3071720198847763 0.13703087748507467
0000f0 b3 cd 07 8a 4b 91 e4 3f d3 9d d5 d5 ad 03 dc bf
       0.6427362152011739 -0.43772455103177527
000100 c3 04 aa d1 94 16 cf 3f 93 52 7b e5 c4 c1 d7 bf
       0.2428766273260746 -0.37120172891926834
000110 ed 90 5a a0 e6 d0 e2 3f f4 8e 4e 52 dc 73 c3 bf
       0.5880005962285658 -0.15197328585519865
000120 d2 bc 60 b5 09 60 da bf 4b 83 e2 03 63 87 c5 bf
       -0.4121116896885272 -0.1681941765755489
000130 62 8a 6a 0c 61 9f c5 3f 6a ca c9 90 e5 d0 c7 bf
       0.16892636400469302 -0.1860625225995876
000140 23 31 ea 57 5c bd da 3f 57 dc 13 df 36 37 bc 3f
       0.41780766091757665 0.11021750398855211
000150 5b 2c e7 d3 e4 d7 d7 3f 39 ab 72 ed 72 05 d4 bf
       0.37255211537985183 -0.31283257663988057
000160 e8 ec b7 e4 1e 2c a7 3f 6d 42 72 a2 89 8c c8 bf
       0.0452584890553796 -0.19178886825513378
000170 5c d7 77 f1 db bf c4 3f 23 84 57 5b 3a 17 d2 bf
       0.16210507669864682 -0.2826677219400741
000180 97 73 e6 04 e4 80 e0 3f 1e 44 c8 06 de 43 d2 3f
       0.5157337279994064 0.28539229070980976
000190 11 d4 54 66 ed da e3 bf 3e ef 72 70 52 e3 c2 3f
       -0.6204745291385071 0.14756231775924705
0001a0 ac 77 3f 45 08 06 cb 3f 84 23 ea 76 39 91 df 3f
       0.21112159138914188 0.49323879826311434
0001b0 b0 fc 71 da d0 f1 b6 bf 4f e7 62 ca 1c 24 d1 3f
       -0.08962731679092673 0.26782912983218393
0001c0 a2 bc bb 7c 80 20 c5 3f 84 2a 5e cc de ec d7 bf
       0.16505437937255346 -0.37383241613193996
0001d0 a9 fd 85 07 28 d1 cf 3f 5d 13 e8 85 94 09 c5 3f
       0.248570445703064 0.16435486353307285
0001e0 c6 ff 66 03 6d e7 e3 3f 02 e7 90 21 14 31 cf 3f
       0.6220002237750968 0.24368526114431438
0001f0 e5 07 27 4e 2c fd d8 3f 38 2e 2d 3a 93 64 c1 bf
       0.39045245773388465 -0.13588180866860156
000200 6b 89 d4 65 3c 37 86 3f a5 2b 63 7f ab be a2 3f
       0.010847541673290014 0.036610945987909184
000210 68 16 71 c6 97 72 bf 3f 12 6f 41 6a f3 58 c2 bf
       0.12284229845780603 -0.1433395642114808
000220 fc 36 cb f2 a1 5e c7 3f 6f 3d 1b 19 dd 93 e4 3f
       0.18257545809904474 0.6430497637137885
000230 8b 9e 0e 5f 2f c0 d0 3f 88 ac c7 7d f9 91 c6 bf
       0.2617300442020471 -0.17632979051208886
000240 31 b2 02 89 bb 17 ab 3f 30 41 8c be 86 96 d6 bf
       0.052915440058630366 -0.3529373989886322
000250 95 b6 63 ca 86 ee ba 3f 1f 15 f3 ad c4 31 cf bf
       0.10520212594175356 -0.24370630735044416
000260 43 ce 03 b1 70 2f c9 3f 66 8a d4 49 6a 3a dd 3f
       0.1967602600412751 0.456690380191651
000270 c6 51 af d9 92 88 d2 3f b9 18 ae aa 9a af ca 3f
       0.2895857930973559 0.20848401388156448
000280 8a 44 5a cc 4c 59 ca bf 20 52 60 fc 1c b1 cf 3f
       -0.20585021951822952 0.24759256671008334
000290 69 ea 81 5a 9c 61 c7 bf 21 dd 7c 04 34 3c e2 3f
       -0.182666343873126 0.5698490226413108
0002a0 ed 6e c0 2b 9b 66 d0 bf de ac 01 5f 97 26 c9 3f
       -0.25626258156419973 0.19649021281234175
0002b0 f0 a7 36 62 d8 ea ba 3f 1e 8b 88 12 9a 2f dd bf
       0.10514595411100891 -0.4560303860654801
0002c0 0f 68 0e a0 a2 7d d0 3f 9d a3 dd 2c d2 28 df bf
       0.25766816740508686 -0.486866515936123
0002d0 41 60 01 d6 9b 06 ee 3f 15 ca f9 1e 0a 1e eb 3f
       0.9383067302505951 0.8474169354433935
0002e0 bd fa e6 a1 0d a3 ab 3f bc 63 8a b1 58 a9 a4 3f
       0.053978372586688896 0.04035451094859563
0002f0 f6 a8 97 ac 49 0b 92 bf 6c 2e c8 cd 43 9a d3 bf
       -0.017621184500890195 -0.30629057975668306
000300 32 7f a9 b8 97 58 d5 bf 69 9f cb 3a 8c 12 cb 3f
       -0.33353226693542404 0.2115035330855293
000310 0e 73 08 ed be 5a bf 3f ae 4a bb 53 bc 6d c1 bf
       0.12247842108667958 -0.13616136635262904

linears.2.bias f8 [10]
000000 9e 15 68 73 37 38 de 3f 08 0c 47 80 62 35 e0 bf
       0.47218118925260366 -0.506516695539518
000010 ef 63 a5 a4 19 be d8 bf 4d 51 2a 72 2a b7 90 bf
       -0.3866027934905664 -0.016323722093674765
000020 1b 4d 50 a5 a1 9e cb 3f 81 8c b9 5d 1c b8 e3 bf
       0.2157785470195471 -0.6162244635164741
000030 c3 b8 57 23 03 c4 b7 3f 03 f4 46 1f bb 7f e6 3f
       0.0928346596990393 0.7030921564943359
000040 d5 c3 45 cf e1 0a d2 bf b0 cc d1 0f 0d 99 db bf
       -0.2819141887803743 -0.4312164930808633

proj.weight f8 [3, 10]
000000 94 a9 15 61 42 f0 e3 3f 2a 81 9b fa 93 9c d5 bf
       0.6230785270866357 -0.33768176530249383
000010 ee 6d 03 cd 7a 20 c4 3f dd 3b a3 1c da 72 df 3f
       0.15724120150012716 0.4913850097336175
000020 29 1c ea d3 0b 98 df 3f 03 1e b4 23 1d c5 d0 3f
       0.4936551637151206 0.26203087317159673
000030 0d 99 3a 69 a6 ea e1 3f c6 07 a1 db 0c 69 b4 3f
       0.5598938040973579 0.07972793924366703
000040 61 49 06 ac 6d 1d 9d 3f 15 01 da 50 b4 30 d5 bf
       0.028432572960420347 -0.331097678143139
000050 04 00 bd 0c 49 52 da bf f3 88 7f 53 a5 c5 d2 3f
       -0.4112722992322235 0.2933133426105449
000060 33 6e 27 b2 32 b6 df bf 2c 40 07 cd 30 04 83 3f
       -0.49549548528532056 0.009285336739509452
000070 52 9e b7 97 43 16 d4 bf b4 33 18 46 df bc e0 bf
       -0.31385888878000856 -0.5230556839975322
000080 52 21 f4 60 75 09 d4 bf 20 6a 9f 65 72 d1 d4 3f
       -0.3130773016751124 0.32528362201779437
000090 46 03 e8 a5 b7 6d dd bf 45 86 77 6c 41 0e e4 3f
       -0.459821617143508 0.6267401808256144
0000a0 64 24 e5 cc 55 18 b8 bf 90 d4 a0 90 69 6f da 3f
       -0.09412132503816079 0.4130500709901037
0000b0 b1 6c ec 42 5f 40 d9 3f 87 16 a5 c8 41 0e dd bf
       0.39455396209241217 -0.45399517626024316
0000c0 fe 35 57 43 60 e5 d1 bf 00 9e 79 bc 32 60 d2 3f
       -0.2796250016807277 0.28712147146003986
0000d0 1a 62 1c 2b ab 3a ca bf dd 65 9e 54 1e 17 ac bf
       -0.2049154243948273 -0.05486387999480844
0000e0 d7 f6 cf e0 3d dc da 3f eb 5f e1 ab 65 97 d2 bf
       0.4196924872811513 -0.2904905489463078

proj.bias f8 [3]
000000 bb 36 20 b3 fa d8 d2 3f b5 aa 24 b5 5e a2 c7 bf
       0.29449336521870934 -0.18464263768085734
000010 1f a5 c8 5d f9 a6 d0 3f
       0.260191289506638
