flowMapNetwork/trainedModels/trained_model_SIR.pt (torch, 17028 bytes, 13 tensors)

seq.0.weight f4 [10, 1]
00000000: 0000 803f 0000 803f 0000 803f 0000 803f
00000010: 0000 803f 0000 803f 0000 803f 0000 803f
00000020: 0000 803f 0000 803f
1.0 1.0 1.0 1.0 1.0 1.0 1.0 1.0
1.0 1.0

seq.0.bias f4 [10]
00000000: db0f c9bf db0f c93f db0f c93f db0f c9bf
00000010: db0f c93f db0f c93f db0f c93f db0f c93f
00000020: db0f c9bf db0f c9bf
-1.5707964 1.5707964 1.5707964 -1.5707964 1.5707964 1.5707964 1.5707964 1.5707964
-1.5707964 -1.5707964

seq.2.weight f4 [4, 10]
00000000: e02e f1bd b692 43be 781b 59bd f1ac 0bbe
00000010: 9488 cfbd 0014 783c 5209 413e ac01 303e
00000020: 1f46 9ebe aebd 483e f8ec b43d 4d94 993e
00000030: 1ebd 553e 6385 93be aff1 99be fd2f 1cbe
00000040: 812c 8e3e 68c0 57bd a494 0a3e 487b 16be
00000050: 1dde 9e3e ae01 09be aed6 723e 0069 753b
00000060: b297 2abe 6672 263e 82e3 2bbe ec78 be3d
00000070: 5602 bbbd 8801 0ebd 32a8 9bbe e063 1abe
00000080: d8b6 2f3e dc6c 9dbd dd44 a13e b9c8 813e
00000090: c098 72bc 7c24 58be 4631 453e 78ff c83d
-0.11776519 -0.19098935 -0.053004712 -0.1364019 -0.10133472 0.015141487 0.18851212 0.17188138
-0.30912873 0.19603607 0.08834261 0.29995957 0.20872924 -0.28812703 -0.30067202 -0.15252681
0.2776833 -0.052673727 0.13533264 -0.14695466 0.31028834 -0.13379547 0.23714706 0.0037446618
-0.1665943 0.16254577 -0.16786006 0.09300408 -0.09131305 -0.03466943 -0.3040176 -0.15077162
0.17159593 -0.07686779 0.3149785 0.25348452 -0.014806926 -0.21107668 0.19257078 0.09814352

lift.weight f4 [30, 4]
00000000: c088 223f 6ca8 25bf 13d6 24be 89be 3cbd
00000010: d3fa acbd 62a1 593e e401 bb3e 03b0 5a3c
00000020: 2316 0ebf a9db b23e 5b59 75be 4b27 88be
00000030: a491 143f 6224 06bf 0657 253d 50e5 7ebc
00000040: b6e5 02bf dc9c 8b3f ad19 f43d 4d6b 903e
00000050: b7af 39be b53a ebbf 199b 103c 7f01 963e
00000060: 81a0 bbbe a353 e0be 34c8 ba3c 127b 383c
00000070: 7dab 98be 6db9 02bf 6800 413e 77db d33b
00000080: b825 b43f 13b1 ca3e bb61 ebbd ac65 08be
00000090: 7e06 963f ec80 2ebf 4287 753d cee1 3e3a
000000a0: 7422 5d3f 6133 a63f 48ba ef3e 8af2 30be
000000b0: 12a6 07be 09f6 0e3f e462 bfbd 4340 5e3e
000000c0: cf5c c4be 888b e2be 5cd7 73be 9c90 23bd
000000d0: eb99 8b3f f5a7 05bf 70a6 a33c d527 00be
000000e0: 2c17 c7be e42e 44bf c0f0 793d 1ea0 703e
000000f0: b836 7dbf c791 f43e 1a51 623c 4f49 083e
00000100: 4522 923e 5ecb b13e 63ae 6abd 96a7 b13b
00000110: f668 c9be 7e6f 0ebf b04f d73c 5ac9 c0bc
00000120: b3ec 82be 4541 2f3e 1e20 853e 8f18 103d
00000130: d03b 243f 8681 3c3f f721 07be ae83 433e
00000140: 0258 10bf 672c 133f a974 3ebd f618 363c
00000150: ff40 5ebf 5189 21bf 1020 6bbc 902e 1bbe
00000160: 9637 433f f34c 36bf 1ed6 8fbd fd3c 203e
00000170: ad73 8fbe ae27 913e 048b 8ebe 7aae d53b
00000180: 38ef 79be 3b53 ebbe ee61 51be 8102 ce3b
00000190: 6f79 30bf 6068 a53d 8577 f13c 8891 693c
000001a0: ea10 b13e 6158 ae3f b0f6 773d ae53 9e3e
000001b0: 98c3 90be 1660 483f c80c 56bc 794d 82be
000001c0: b7de 8cbf 82ad 00bc 94ec 54be 603b 2c3e
000001d0: be67 3fbe f8c2 dfbe 8916 ce3c a2bb 37be
0.63489914 -0.64710116 -0.16097288 -0.046080146 -0.084462784 0.21252969 0.3652488 0.0133476285
-0.5550253 0.34933212 -0.23959868 -0.26592478 0.5803473 -0.52399266 0.040366195 -0.015557602
-0.5113176 1.0907245 0.1191896 0.28206864 -0.18133436 -1.8377291 0.008826041 0.29298016
-0.36645892 -0.4381381 0.022800542 0.011259811 -0.29818335 -0.5106419 0.18847811 0.006465371
1.4074011 0.39588222 -0.1149325 -0.13320035 1.1720731 -0.6816547 0.059943445 0.00072815723
0.86380696 1.298443 0.4682181 -0.17280021 -0.13246945 0.5584417 -0.09345034 0.21704201
-0.38352057 -0.4424708 -0.23812622 -0.039932832 1.0906347 -0.5220941 0.019976825 -0.12515195
-0.38884866 -0.7663405 0.061020613 0.2349858 -0.9891162 0.4776747 0.013813281 0.13309215
0.2854177 0.3472547 -0.057295214 0.005421589 -0.3933789 -0.55638874 0.026283115 -0.023533512
-0.25571212 0.17114742 0.26001066 0.03517967 0.64153767 0.7363514 -0.1319655 0.190932
-0.5638429 0.5748963 -0.046497975 0.01111435 -0.86817926 -0.63100153 -0.014350906 -0.15154481
0.7625669 -0.71211165 -0.070232615 0.15648265 -0.2801794 0.28350586 -0.27840436 0.0065210434
-0.24407661 -0.45961937 -0.20447513 0.0062869196 -0.6893529 0.080765486 0.029475937 0.014255889
0.34583217 1.3620721 0.060537994 0.30923218 -0.28274226 0.78271616 -0.013064571 -0.25449732
-1.1005467 -0.0078538675 -0.20793372 0.16819525 -0.18691918 -0.43703437 0.02515723 -0.1794267

lift.bias f4 [30]
00000000: be47 963e 25ea bfbe 8b4e 16bf 9d01 d33d
00000010: 6e03 333f 7109 4fbf 31fe 083f 6155 023f
00000020: 22b2 653f 0c66 a7be 32e7 3a3f 7366 4fbf
00000030: 7598 263f df96 9fbe 50fe 1f3f 2ff7 f13d
00000040: 38ed f3be d5af de3e 6478 a53e 5897 283f
00000050: ae4e 2bbe 974a 063f dcc5 0bbf ded0 20bd
00000060: 143d 273f 59e5 ce3e 78e9 e23e 7700 20bf
00000070: e891 eebe fd0a 543f
0.2935161 -0.37483326 -0.587136 0.10303042 0.6992711 -0.8087378 0.53512865 0.5091153
0.89724934 -0.32695043 0.73009026 -0.810157 0.6507638 -0.31169793 0.62497425 0.11814725
-0.4764192 0.43493524 0.32318413 0.6585593 -0.16729233 0.52457565 -0.54598784 -0.03926169
0.6532757 0.40409353 0.44318748 -0.6250071 -0.46595693 0.82829267

linears.0.weight f4 [30, 30]
00000000: 1151 453e 342c 163e eddb 2abc aa62 00be
00000010: 1af9 93bc 3c27 45be 7967 86be 959c 94be
00000020: 3e29 143e e73b 153f 3723 bfbc a6b0 48bd
00000030: 7ed0 093d cfed 243e d9eb bcbd 947c 05be
00000040: 10eb f8bc e676 503d 2715 f6bd 2aa3 36be
00000050: b4b6 8fbe cf4c 113c e924 8a3e 8c30 223d
00000060: 77d5 b8be a922 edbe b93b 0ebe f811 9abe
00000070: 330f afbd 9283 5e3c e145 793e ecf9 c83a
00000080: 9f3b 9b3d 607f 9f3e edae 13be 3382 99bc
00000090: 2ca5 0dbe 506f c0be 9243 17bd 6dbb 873c
000000a0: 71a9 48bc 995a bf3e 9f0f 32be 4ffa 873d
000000b0: 7e84 f13d 314c 49bd 2797 873e 22de 46be
000000c0: 9262 29bc 5334 acbe ebe9 06bd 6f64 143e
000000d0: 60a9 543e b3bd 1ebd eec3 05bf 3008 89be
000000e0: 12ae 1fbf 2f3a 22be 8d67 0bbd ca3b 32be
000000f0: 8dc6 cfbe 2296 9f3e 6ff6 923e e5db 863d
00000100: e7b3 a1be 9359 b23e 3ead 10be 4adf edbd
00000110: 96a7 efbe f5e2 4b3e 613a efbe e6d4 753e
00000120: c26f 0b3e 5a42 123e 712a ac3c 5a09 a1bd
00000130: 7801 c2bd e7c8 563d 33f1 0dbd 407d b7be
00000140: b5c3 0b3e 284f 4bbe 50c6 743e 29c3 e2bd
00000150: 27bc 8cbe 8034 26be f741 1dbf fed5 df3e
00000160: 487d fa3e b1aa 36be 4e3d 983e 62b8 01bc
00000170: 8e6c 9bbe 3446 58bc f10b c03e acca d4be
00000180: 3e72 8ebd 4043 2a3e eed2 983e 56da cfbc
00000190: c0e9 273e cabe f4bd 0208 2a3e fad3 fdbd
000001a0: 0727 123e 7df7 11bd 6d2c 5ebd 020e c73d
000001b0: c47f 1bbe c29d 603e beea 3d3d 0886 063e
000001c0: 54a3 b33d efcb 0cbd d327 753e 5d14 9ebc
000001d0: 146e d03d 2bc2 ddbe 28b9 00be e3d7 0e3e
000001e0: bbc3 0dbe aff4 c8bc e068 7ebe c0a3 d63c
000001f0: e30f 52be c8b2 c5be 1c35 d73d 40e9 d2bd
00000200: c65f 6abe 3344 04be 9f59 3a3e ba93 113e
00000210: 40cb 8c3e e0ad 19bd 030f 803e 7868 183e
00000220: b574 c13d 6929 363e a889 183d ff09 0cbd
00000230: cc96 093e f3d9 23be 35f6 ccbb cfb5 0a3d
00000240: 8412 513d 9d9a eb3d c0ce fcbe f478 b2be
00000250: f9ec 033e 5b25 d9bd 0ff8 05bf 7073 b5bc
00000260: 783a 4e3e 88f8 ba3d 56c7 733e e885 ae3e
00000270: e084 8b3d 0190 5b3e 80eb 483d 28bb 46bc
00000280: 7737 f6bd 2fc0 5cbe 50dd 0b3d 3a3b 80be
00000290: 8663 51be 8b02 a13e 37eb 1dbe b7f3 253e
000002a0: d1d3 f7bd 6263 81bd b86b 2f3d 849a 913e
000002b0: 6d01 943d 3f84 a73c 63b5 5f3e b6a8 e93c
000002c0: 2882 483e bc17 f33e b4c9 8b3d 344c 4f3e
000002d0: f866 9fbe ed8b 2d3e fd55 643c 2eed a3bd
000002e0: d826 a03c 4110 e2be f8df 133e 5433 093e
000002f0: deb2 a73e 7ac5 71be 4969 623e a148 1f3e
00000300: 32da 753e 9078 c0be 0879 3e3e 072a 703e
00000310: 764c 81bd 32ea b63d dc39 d6bd 652e 8d3d
00000320: 84c5 99bc 3053 063f f291 813c 172e 2e3e
00000330: 2f83 433e b027 9d3e bed2 07be 3db2 c8be
00000340: ac7f 02be 6bea 29bc 4764 66be 8fdb c23c
00000350: e4b5 c9bc dfd1 bcbd 5831 ba3c b565 f0be
00000360: 5ae2 373e 5798 abbc 20fd 8e3e e4b1 ddbb
00000370: e477 8e3d 717a 8e3e ece8 b93d 31c1 7ebc
00000380: 7a8d 0f3e ab71 293e ccd0 21bd aa61 073e
00000390: 54a6 5e3b 2901 1cbe 7a21 bb3e aa83 a63e
000003a0: 38e1 1e3e 7a45 65bc 1bb1 6a3e e38c 813e
000003b0: a404 a9be 9dab bbbe f2ad bd3c 057a 34be
000003c0: 0dfd df3e 4d42 28be 8973 263e 0420 6b3e
000003d0: d445 8a3e 37ce 2f3e 2bbd cebd e540 6b3e
000003e0: 0ae0 1b3d eb8d abbd 12f7 07bc c157 c6bd
000003f0: 843d ac3d 0158 e7bd a1b1 473e 448e 813e
0.19269206 0.146653 -0.010428411 -0.12537637 -0.018063117 -0.19253248 -0.26250818 -0.29025713
0.14468858 0.5829453 -0.023332221 -0.04899659 0.0336461 0.16106342 -0.09224672 -0.13035804
-0.030385524 0.05089464 -0.12015753 -0.1783568 -0.2806908 0.00886841 0.26981285 0.03959708
-0.3610036 -0.46315506 -0.1388997 -0.30091834 -0.08547821 0.0135811735 0.24343063 0.0015333272
0.07579731 0.31151867 -0.14422198 -0.018738842 -0.1383254 -0.37584925 -0.036929674 0.016568864
-0.012247429 0.37373808 -0.17388771 0.066395395 0.11792849 -0.049144927 0.26482508 -0.19420674
-0.010338442 -0.3363367 -0.032937925 0.14491437 0.20767736 -0.03875513 -0.5225209 -0.2676406
-0.62374985 -0.15842508 -0.0340343 -0.1740562 -0.4058117 0.3116923 0.2870364 0.0658491
-0.31582567 0.34833965 -0.14128587 -0.11614855 -0.46807545 0.19910796 -0.46724227 0.24006996
0.13616851 0.14283124 0.021016331 -0.07863112 -0.094729364 0.05243769 -0.034653854 -0.35837746
0.13648875 -0.19854414 0.23903775 -0.1107238 -0.274873 -0.16230965 -0.6142878 0.4371795
0.48923707 -0.17838551 0.29734272 -0.007917495 -0.30356258 -0.0132003315 0.3750911 -0.41560876
-0.06955384 0.16627216 0.29848427 -0.025372665 0.16397762 -0.119504526 0.16604617 -0.12393947
0.142727 -0.035636414 -0.054241586 0.09719469 -0.15185457 0.2193518 0.046366446 0.13137066
0.08771387 -0.034374174 0.23940973 -0.01929682 0.10177246 -0.433122 -0.12570632 0.13949542
-0.13844196 -0.024530737 -0.24844694 0.026201129 -0.20513873 -0.38612962 0.10508177 -0.10298395
-0.22888097 -0.12916641 0.1819825 0.1421651 0.27498817 -0.037519336 0.25011453 0.14883602
0.09446088 0.17789234 0.037240654 -0.03418922 0.1343643 -0.1600111 -0.006254936 0.033864792
0.05104305 0.115040995 -0.49376488 -0.34857905 0.12883367 -0.10602828 -0.5233163 -0.022149771
0.20139492 0.09129435 0.2380651 0.34086537 0.06812453 0.21441652 0.049052715 -0.012129582
-0.12022298 -0.21557687 0.034146607 -0.25045186 -0.20448121 0.31447253 -0.15421759 0.16206251
-0.12100948 -0.06317784 0.042827338 0.284382 0.072268344 0.020448802 0.21846537 0.02852283
0.195809 0.47479045 0.06825581 0.20243913 -0.31133246 0.16947909 0.013936517 -0.08004223
0.019549772 -0.44153026 0.14440906 0.13398486 0.32753652 -0.23610488 0.22110476 0.1555505
0.24009016 -0.37591982 0.18600857 0.23453532 -0.06313412 0.08931388 -0.104602545 0.06893615
-0.01877094 0.52470684 0.015816662 0.1700977 0.19093011 0.30694342 -0.13263986 -0.39198485
-0.12744015 -0.010370831 -0.2249919 0.023786334 -0.024622865 -0.09219717 0.022728607 -0.46952596
0.1795744 -0.020946665 0.27927494 -0.006765591 0.06956461 0.2782779 0.090776294 -0.01554899
0.14018813 0.16547267 -0.039505765 0.1322085 0.003397365 -0.15234818 0.36548978 0.32522327
0.15515602 -0.013993615 0.22919123 0.253028 -0.33011353 -0.36654368 0.023154233 -0.17624672
0.4374775 -0.16431542 0.1625501 0.22961432 0.270064 0.17168508 -0.10094675 0.22973974
0.038055457 -0.08376678 -0.008298652 -0.096847065 0.08410171 -0.11296082 0.19501354 0.25303853

linears.0.bias f4 [30]
00000000: c169 a53e 0941 9b3d 401c fdbe 7459 d93e
00000010: 3989 f13d 3ffc e2be dc97 b33e f714 b23e
00000020: 8f19 5bbc 5ab3 80be 96df 39be 5148 d33e
00000030: 09af c8bd f3db bb3e dd4d 0d3f 0010 a03e
00000040: f8b1 d93e 91bb 4e3e 2251 94be 41ee 9dbe
00000050: 11c3 3cbe 61ea e03e b7fe d83e d710 b93c
00000060: e2bf f1be e133 bdbe a444 98be a5a5 e53d
00000070: 45e4 40be aa26 813e
0.32307246 0.07580764 -0.49435616 0.4245106 0.11793751 -0.44333073 0.35076797 0.3478162
-0.013372793 -0.25136834 -0.18151698 0.4126611 -0.0979901 0.36691245 0.55196935 0.31262207
0.42518592 0.20188738 -0.2896815 -0.30845836 -0.18433787 0.43928817 0.42381832 0.022591038
-0.47216707 -0.36953643 -0.2973987 0.11213235 -0.18837078 0.2522481

linears.1.weight f4 [30, 30]
00000000: f3b2 903e 7eff c13b 7f6d 06bf 5108 f83e
00000010: 9c28 bcbd 9388 d7bd 99df eb3e 4441 eabd
00000020: 8b13 9a3c cb20 e1bc eaa4 09be 3ef1 853e
00000030: b0c9 fa3c e88a a03e 1964 323d 69cf 9e3e
00000040: 16f6 573d 0879 c93d fedd 13bf c7b6 a1be
00000050: 09a1 0abd 1ad6 273e d2c0 6b3e 3fcc f1bc
00000060: 8e5f 18be ad44 8abe abc5 83bd 28ee 033e
00000070: d909 20be 021e f73d 3eed bfbd 3960 023e
00000080: 86b9 31be 55dc 753e ed65 133e 5034 edba
00000090: 092f 3c3e 9fc2 08bd 4b55 973e fe54 f6bc
000000a0: 9284 143e 8653 843e 3da1 a7be ffdc 133d
000000b0: 3222 343b a731 b03e e008 db3e 390a fdbc
000000c0: dab7 75be 7737 ff3c 56d5 b4be 118d bf3e
000000d0: a3d3 e53e c1c8 cb3d 4ead ddbd 5452 31be
000000e0: 44f1 d0be 303e 5a3e 9e26 50be 7294 98be
000000f0: b210 223e 6d34 33be cb7a b1be ae24 833e
00000100: cc43 9ebd 4094 83bd f789 8f3e 5c75 01bc
00000110: cea4 013d 57a1 09be 0779 023d 2952 77bd
00000120: 9725 ec3d b2a9 9f3e 0fc4 be3e 5b63 9fbd
00000130: 8c23 2abd ba83 373e 79c2 a0be a056 cabe
00000140: af05 1a3e 8ee4 5f3e 0238 0c3f 206b e6bd
00000150: 7532 7ebd d033 bebd 95c0 123d 9b60 0a3e
00000160: d213 b73d cdc2 373e 8b0c 57be 3d4b 803d
00000170: dbad bf3e 18a6 e9be c6ce 3d3c 228a 3bbd
00000180: 7b1f 4fbd 1a5e 8d3e d031 813d 688e 213e
00000190: 4300 353e 62de 71be 5924 acbd 7083 adbe
000001a0: 2b41 7dbd a49a 04be e993 3dbe 5f36 f2bb
000001b0: 6ac7 cd3e 92ce 803e 33b0 b5bd 8139 74be
000001c0: a0d0 79be 0ac3 86bd c9dd b03e d6bc 1a3e
000001d0: efc0 2c3d d86b 783e 3ec9 15bd 6474 67be
000001e0: 2e9d 84bb eb49 143d afa5 d03d 05d6 323d
000001f0: 06c2 89be ddb8 1a3d 224a 19be 3795 46be
00000200: 13f7 0a3e 67e3 1bbe 3ed7 8e3d ee73 983d
00000210: 5dc7 24be e872 24be 0c1f 2a3e 11e8 5abd
00000220: 90d4 453e 4739 123e 702f 0fbd c650 d2bd
00000230: 6baa 88bd 0d76 96bd daab 8c3e f088 023d
00000240: c738 a83d cd5d 583e 191e b0bd 86ff 4e3e
00000250: e55f cf3d e556 863c 26da 49be a80b 6bbe
00000260: 09d7 323e 7b4f b9bc 74db 913e 5e7b 0d3d
00000270: f69b d33d 60b5 b63d 8b61 83bc d5b3 8b3e
00000280: 1cb8 463d 28f1 0dbe 28ca 2abe 8275 fc3d
00000290: bf65 ccbd 0ae0 473d 1cb5 bf3e 10dc 38be
000002a0: 4d64 803e 808b 223c 3032 9abd 2281 cabd
000002b0: a667 bebe 09d1 253e 73bf 63bd ffe6 08be
000002c0: ddd5 c6bd 3c19 24be c956 9bbd 3b07 03be
000002d0: fd99 5fbe a396 fd3e c68a 1a3e b650 1cbe
000002e0: 65a6 63bd 3cd2 b43e 548d d4bd 0e5d 42be
000002f0: 4de7 1bbf b21a 7b3e cc57 f63d 7f71 863e
00000300: 5687 1bbd 167d 18be cb39 11bf 30c6 26be
00000310: ae45 8fbe 00e8 123c b6c5 b73e 294c 82be
00000320: 1bbf a83e 7a6a c8bd ca1f 01be 8e0b 8a3d
00000330: 851f 993e 4a4b 853e f722 9e3d 1418 67be
00000340: d150 173d 2d44 86be d4f4 803e 2447 d8bc
00000350: df57 6dbe b742 cc3e c392 99bc 05c8 753d
00000360: 0aa7 183f a43e 843e 080d a23d 9b47 77be
00000370: f061 293e 0447 40be b68d bcbd fdec e73e
00000380: 0410 be3e c0b0 623c 442c 6e3e 79d6 a13e
00000390: 9001 a3be 9c05 62bd 2ee2 af3e e8ca 073d
000003a0: 2b59 eb3d 6344 a2bd aa7e 0dbf 95c7 b4be
000003b0: 54e6 aabe 28af dc3d c4b0 59bd cb96 ee3c
000003c0: 7d7a aabc 8cc4 1ebe 495e 8cbe 1677 d23e
000003d0: 1b58 a7be 21ac 01be 1504 ffbc 647c 1cbc
000003e0: a3ee eebd 2bf0 5fbe 2ca4 953c a3e6 23be
000003f0: 4e46 6b3e b054 323e 0974 d83d 0970 1a3c
0.28261527 0.0059203496 -0.5251083 0.48443845 -0.09187433 -0.10524096 0.4606903 -0.1143823
0.018808147 -0.027481457 -0.13441816 0.26160616 0.03061375 0.31355977 0.04355249 0.31017616
0.05272492 0.09837538 -0.5776061 -0.3158476 -0.03384498 0.16390267 0.23022774 -0.029516337
-0.14880201 -0.2700552 -0.064341865 0.12883818 -0.15628757 0.120662704 -0.09371422 0.12732019
-0.17355928 0.24009831 0.1439435 -0.0018097255 0.18377317 -0.03338873 0.2955726 -0.030069824
0.14503697 0.25844973 -0.32740203 0.03609943 0.0027486202 0.34412882 0.4278021 -0.030888664
-0.23995915 0.031154377 -0.35319012 0.37412313 0.44888029 0.099504 -0.10824071 -0.17316562
-0.4080907 0.21312785 -0.20327231 -0.29800755 0.15826681 -0.17500468 -0.34663996 0.25613922
-0.07727775 -0.06424761 0.28034946 -0.007901516 0.03165131 -0.13440453 0.031853702 -0.06038109
0.11530607 0.31184155 0.37258956 -0.077826224 -0.041537806 0.17921343 -0.3139837 -0.39519215
0.1504123 0.2186453 0.5477296 -0.11250901 -0.06205984 -0.09287226 0.03582819 0.13513415
0.08939327 0.17945404 -0.21000879 0.062643506 0.3743733 -0.45634532 0.011584943 -0.04578603
-0.05056713 0.27610856 0.06308329 0.1577698 0.17675881 -0.23619989 -0.0840537 -0.3388934
-0.061829727 -0.12949616 -0.18513454 -0.0073917354 0.40191203 0.251576 -0.08871498 -0.23850061
-0.2439599 -0.065801695 0.3454421 0.15111098 0.042176183 0.24259889 -0.036568873 -0.22602993
-0.0040470576 0.036203306 0.10187852 0.043661136 -0.2690584 0.037773956 -0.14969686 -0.19392858
0.13570814 -0.15223466 0.06974648 0.07443987 -0.16091676 -0.16059458 0.16613406 -0.053443972
0.19319367 0.14279662 -0.03495735 -0.102693126 -0.0667313 -0.07346735 0.27474862 0.031868875
0.082139544 0.21129532 -0.08599491 0.20214662 0.10125712 0.016398856 -0.19712123 -0.22953665
0.17464842 -0.022620907 0.28487742 0.03454148 0.103324816 0.08921313 -0.016037723 0.27285638
0.048515424 -0.13861525 -0.16678679 0.123271 -0.09980344 0.048797645 0.37442863 -0.18052697
0.25076523 0.009920955 -0.07529104 -0.098879114 -0.37188452 0.16193022 -0.055602502 -0.13369368
-0.0970876 -0.16025251 -0.07584912 -0.12795727 -0.21836086 0.4952899 0.15092 -0.15265164
-0.055578608 0.35316646 -0.10378519 -0.1898081 -0.6089981 0.24521902 0.12028465 0.26258466
-0.037970863 -0.14891466 -0.5672881 -0.1628654 -0.2798285 0.008966446 0.3589303 -0.2544873
0.32958302 -0.09785934 -0.12609783 0.06740485 0.2990686 0.26034003 0.07721513 -0.22567779
0.036942307 -0.2622389 0.2518679 -0.02640111 -0.23178051 0.3989465 -0.01874674 0.060005207
0.5962988 0.2582904 0.07912642 -0.24148409 0.16541266 -0.1877709 -0.09206717 0.45297995
0.37121594 0.013836086 0.23259073 0.31608942 -0.3183713 -0.05518113 0.3435225 0.03315249
0.11491617 -0.079232 -0.552714 -0.3530852 -0.3337885 0.10775596 -0.053147092 0.029124638
-0.02081036 -0.15504664 -0.27415684 0.4110648 -0.32684407 -0.12663318 -0.031129876 -0.009551141
-0.1166661 -0.2186896 0.01826676 -0.1600595 0.22976038 0.17415118 0.10569007 0.009426125

linears.1.bias f4 [30]
00000000: 9e32 ec3e e35e 003f e03c e53e 9ca7 e9be
00000010: a8fe b23d e707 acbe 6097 3dbe 49f7 063f
00000020: bc5b 243f fe03 e73e bb27 0bbf 0b85 febe
00000030: 38f7 2abf 402f a4be 3903 13bf 70c7 cc3e
00000040: e078 173f f7b0 b43e 33af 15bf 2c83 cebe
00000050: dd33 bc3e 4af0 933e 68ff 27bf 7707 2bbf
00000060: b69e 57bd 9cd7 bbbd ad8e 783e 1968 4f3f
00000070: bb19 b53d 1518 ec3e
0.46132368 0.50144786 0.44773006 -0.45635688 0.08739978 -0.3359978 -0.18514776 0.5272108
0.64202476 0.45120233 -0.543575 -0.4971088 -0.66783476 -0.320673 -0.5742679 0.3999591
0.59168816 0.35291263 -0.5847046 -0.4033445 0.3675832 0.28894264 -0.65624094 -0.66808265
-0.052641593 -0.091719836 0.24273176 0.81018215 0.08842798 0.46112123

linears.2.weight f4 [30, 30]
00000000: 9d0a 89bd 2e53 ca3d 6e5f cf3c d27c 283d
00000010: ab49 7dbe c439 393e de17 c1bd ff26 f3bb
00000020: 0592 353d db2d 25bd bf8d 88bd f4b0 09be
00000030: 87c6 c1bd 7399 4ebb b2b5 ecbd 5cb4 45be
00000040: 6f50 c33d 76b8 663c c1fd b7bd 012c b13d
00000050: 4cd4 993d bdba 2c3e 606a 493e 4b53 ca3d
00000060: 9248 00be c281 8e3d d5d3 5a3e f498 6fbc
00000070: 2616 dcbd 6782 ebbc e3ad 26be f206 a3be
00000080: 7ee4 9ebd f6de 4a3e 120e 42bd 87f0 d93c
00000090: ad90 d13d 0f29 27be d1bd 85bd e127 cebe
000000a0: 6da1 fc3d 2bb3 933e 21b6 c43e c401 96bd
000000b0: 37c1 af3e 5f0a 16bf a7a4 95bd 7a65 b7be
000000c0: bdd1 503e 2169 fe3b 1a8d 9abe 3a23 6bbe
000000d0: 9e9c 9a3e 6211 2d3e f048 003d ad34 23be
000000e0: 8f5d 36be ad27 aabe 840e 283c a117 a0be
000000f0: 9ac3 433e 12eb 993e 4f8e 603e 238e a8be
00000100: b3ee 21be def9 693b 2018 973e 7176 b83e
00000110: ab02 1e3e 31d8 b53e e9aa b4bc 05a9 3abe
00000120: e977 2bbe 81fa 823d c2cc 61bd f140 1a3e
00000130: 6a9e 973d db12 d23e 4a40 24be fb4e 08be
00000140: 0511 293e 8ea8 98bd 0ae1 9fbe 6bec e4be
00000150: 01d8 31be 1c15 3b3e 6695 7a3d 8721 1f3f
00000160: ce6c b2bc 4831 963c bf79 713e 50a5 5d3e
00000170: 40b9 f63d a75a 68be 7e07 473b e06d 1dbe
00000180: b64d 063d 401f 3e3e c738 033d b725 4e3e
00000190: 5add 82bd 907b e7bd a5cd efbd cc47 b03d
000001a0: dd82 7dbe 9460 713d 2a08 003e fde8 c93d
000001b0: fec9 42be 78cd 32be ad16 633e 27f3 10bd
000001c0: f1f6 5dbe 4c60 16bf 361f 98be 4a32 e7bd
000001d0: 99d0 ca3d d84b d53e 0b73 b93c 6a20 123e
000001e0: c970 38be 2773 a7be 499a 5abc b09f 7a3e
000001f0: a473 b5bb 90db 0abd 0a18 28bd bbb4 39be
00000200: d14a 0a3d 65c7 1bbe ea3f 013e 4c4c 5fbd
00000210: a74c 0d3f 8978 28bc 647f 033f aa7d b3be
00000220: b13c e4bd bbec 81be 6ac8 493d fc25 9e3e
00000230: 2439 6abe ef21 723d ea38 cd3e ee50 c53e
00000240: 9890 2b3e fde2 83be 3895 023e 2ae6 afbe
00000250: 2268 2cbc 561c 9bbe 3518 25be 6050 8bbe
00000260: 5c0b 04be 6589 073f df53 58be 35be f03d
00000270: c4b2 be3e 5f8e e1bd cecb 12be b8fe f5be
00000280: 7559 bc3e e6df 123e 56ac 553e 5763 c9be
00000290: 8cae 793e 3268 1bbf 2bcb 8b3d eee0 a9be
000002a0: 652e 7b3e e92c 493e 3006 0bbe 6e1d d23d
000002b0: 2db8 923e ca26 ab3e 4fdc 233d 1dfd 1bbe
000002c0: c559 e2bc 0684 90be fe97 2b3e 4e52 fbbd
000002d0: 26d3 bebe 1a81 7cbe 6cd9 fdbd f637 8d3e
000002e0: 47a1 8ebe 8a27 e53e 23ef 593e c7e7 873d
000002f0: e0ed 123d 8328 8cbe 7409 213c adc2 45be
00000300: 2634 cb3d c429 03be aff8 f93e 02f6 77be
00000310: 7793 51be 75b3 cabd cafa 673e 57cb d43d
00000320: 479e 8cbd cbdd a53e e1e8 683e 93dc cc3e
00000330: 3947 adbe 72a4 39be 6ce7 d43d a471 cdbe
00000340: 91cd 4f3e a045 a0be cc11 2b3e 997f 7e3e
00000350: ca85 8e3e 4a41 21be c5da 133d 4337 35be
00000360: 2236 30bd 807e 4e3e 1ea6 053e 76c4 323d
00000370: 9deb bd3c 5743 27bd e880 93bd 2978 6bbd
00000380: d081 d8be 7775 b53e 7741 5e3e 266a c63e
00000390: 1bc8 96be 18ee a0be e09a d93d 15b1 263e
000003a0: 6597 80be ccc0 b3be 46d9 573e 172c cd3d
000003b0: 6544 82bc 3d9d 013f 8022 4ebd 4c38 bd3e
000003c0: 2695 303e 7e38 773e 258b 8c3d 5fca 93bd
000003d0: 74cb 383e e723 87be cba1 29bd 4bd6 d2bd
000003e0: b892 74bb bebe ac3e 01b0 7bbe e5b5 bd3c
000003f0: eafa 36be d0d2 5f3e cf0d d6be 9c55 dd3e
-0.066914774 0.098791465 0.02531406 0.041134663 -0.24735133 0.18088442 -0.094283804 -0.00742042
0.04432871 -0.040326934 -0.06667661 -0.13446409 -0.09461694 -0.0031524568 -0.11558093 -0.19307083
0.09536826 0.014082065 -0.089839466 0.08650971 0.075111955 0.1686811 0.19669485 0.09879168
-0.12527683 0.06958343 0.2136987 -0.014623869 -0.10746412 -0.028748704 -0.1627727 -0.31841236
-0.07758425 0.19811615 -0.0473767 0.02660395 0.10232673 -0.16324256 -0.06530345 -0.402648
0.12335477 0.28847632 0.38420203 -0.073245555 0.343271 -0.58609575 -0.073067956 -0.35819608
0.20392509 0.007763997 -0.30185777 -0.22962657 0.30197614 0.16901162 0.03131956 -0.15938063
-0.17809127 -0.33233395 0.010257367 -0.31268027 0.19117585 0.30062157 0.21929286 -0.32920942
-0.15813713 0.003570191 0.29510593 0.36027864 0.15430705 0.35516503 -0.022054153 -0.18228538
-0.16744961 0.06395436 -0.055126913 0.15063836 0.07403262 0.4103001 -0.1604015 -0.13311379
0.16510399 -0.07454024 -0.3122638 -0.44711623 -0.17367555 0.18269771 0.061177634 0.62160534
-0.021780398 0.018334046 0.23581599 0.21645093 0.120470524 -0.22690831 0.0030369456 -0.15373945
0.032788955 0.18566608 0.03203657 0.20131575 -0.06389876 -0.113028646 -0.117091455 0.08607444
-0.24756952 0.058929995 0.12503114 0.09858892 -0.19022366 -0.17461193 0.22176619 -0.03538814
-0.21676232 -0.5874069 -0.29711312 -0.11288889 0.09903068 0.41659427 0.022637865 0.14270177
-0.18011774 -0.32705042 -0.0133424485 0.24474978 -0.005537467 -0.033900797 -0.04103855 -0.1813535
0.033762757 -0.15212782 0.12622038 -0.05451612 0.5519509 -0.010282644 0.5136626 -0.35056812
-0.111443885 -0.25375924 0.049263395 0.30888355 -0.2287336 0.059114393 0.40082484 0.38538307
0.16754377 -0.25759116 0.12752235 -0.3435529 -0.010522874 -0.30295056 -0.16122515 -0.2720976
-0.12894958 0.5294402 -0.21125744 0.11755029 0.37245762 -0.11013483 -0.14335558 -0.48045897
0.36787 0.14343223 0.20866522 -0.39333603 0.2438299 -0.60705864 0.068258606 -0.3317942
0.24529417 0.19646038 -0.13576579 0.102595195 0.2865614 0.3342803 0.040005025 -0.15233274
-0.027630696 -0.28225726 0.16757199 -0.12271558 -0.37270468 -0.24658623 -0.123949856 0.27581757
-0.2785742 0.44756728 0.2128263 0.06636005 0.035871387 -0.27374658 0.009828914 -0.19312544
0.09922056 -0.12808901 0.48822543 -0.24214938 -0.2046641 -0.0989751 0.22654262 0.103903465
-0.068661265 0.32395777 0.22745086 0.40012035 -0.338434 -0.18129137 0.10395703 -0.40125763
0.20293261 -0.3130312 0.16706008 0.24853362 0.27836448 -0.15747562 0.036097307 -0.17696862
-0.043020375 0.20165443 0.1305165 0.04364439 0.023183638 -0.040835705 -0.07202321 -0.05748764
-0.4228654 0.3544118 0.2170466 0.3875286 -0.29449543 -0.3143165 0.10625243 0.16278489
-0.25115505 -0.3510803 0.21078977 0.10018175 -0.015901754 0.5063055 -0.05032587 0.36957014
0.17244396 0.24142644 0.06862477 -0.072163336 0.18046361 -0.2639458 -0.041414063 -0.102947794
-0.0037318897 0.33739275 -0.24578859 0.023158023 -0.17869154 0.21857762 -0.4180741 0.43229377

linears.2.bias f4 [30]
00000000: 380a bfbb c05f 16bf fb48 c73e 59bf 943e
00000010: a741 f7be 787d 30bf 469b d5be 4fdc d73e
00000020: 5868 ae3e 5870 4bbf 1997 51bf 90e4 27bf
00000030: c440 363e f51b 253f 1c81 4bbf 2f01 c0be
00000040: 47e3 8c3f 830d 3d3f 93ef 403f 23c6 fd3e
00000050: 5d4a fb3e b0ba da3e 3a0c 273f e592 c1be
00000060: 42d6 21bf 0a9e 643f c046 2dbf 7a63 81be
00000070: e17c 58be 9004 003f
-0.0058300756 -0.5873985 0.38922867 0.29052237 -0.48292276 -0.6894145 -0.41720027 0.4216027
0.34063983 -0.794683 -0.8187118 -0.65583134 0.17798144 0.64495784 -0.7949388 -0.37500903
1.100686 0.7384874 0.7536556 0.4956523 0.49080172 0.42720556 0.6525303 -0.37807384
-0.63217556 0.8930365 -0.6768608 -0.25271207 -0.21141388 0.5000696

proj.weight f4 [3, 30]
00000000: 0ecc a3bd 6057 fb3d 5afe 1dbd 6f51 a5bd
00000010: 3758 eabd 3a5d 91bd ea06 a0bd 51e9 433d
00000020: 4dab af3d 278d 08bd 505e 463e 326a 943c
00000030: 593a 323e 8ed0 b83b 87e1 143c 87db 6a3d
00000040: bfbb d83d 3053 b7bc 5a8c ce3d 1557 973d
00000050: 74f3 88ba b6c2 f73c a5cc db3c 4538 dabd
00000060: 5d87 8e3d b8b7 99bd 3cd3 bb3c 34d1 29bd
00000070: e9c5 ca3e 6e23 1dbd d5b6 8cbe 98c3 733c
00000080: 38c6 2abe 824e dcbd 56d0 553d eecf b6bd
00000090: 3a1f 41be 3225 cd3d 767f 623e 8051 f5bd
000000a0: f80f bc3d 33da a43d 09f5 8d3d fd47 2c3e
000000b0: 4ad8 18bd 8217 3f3e 5f9c 0a3e 06fc 823d
000000c0: 8e51 993e f540 39bd ce84 243e 8c89 99bd
000000d0: 9e3f e83d 83cc 20bd c3f0 523e c4c5 b5bd
000000e0: 5c74 843c 0a65 903e 4a3f 30be 8eb6 51bd
000000f0: 6694 b53e f1eb 76bd bee2 973e 2db9 d93c
00000100: 2a3c 25bb 57e2 b23d f132 8c3e 4a3f 0b3d
00000110: a2e9 15be 9599 61bd 3746 36be 6c4d 623d
00000120: 3079 7abe 96d1 98be 8bd3 af3c b852 82be
00000130: 2ef1 27be 06b2 be3d 3140 883d e4b3 54bd
00000140: ce5b b0bc ec87 513e 48f8 d7bd adee b9bd
00000150: 1ab2 13be d46c 593d 125d 0dbe c3ee 76be
00000160: 535b 65be 51d0 273d
-0.07997905 0.12272525 -0.038572647 -0.08072173 -0.11442607 -0.0709786 -0.07813819 0.04782993
0.08577595 -0.03333774 0.19371915 0.018117044 0.1740507 0.005640096 0.009086973 0.057338264
0.10582685 -0.022378534 0.10085364 0.073896565 -0.0010448531 0.030244213 0.02683098 -0.10655264
0.06959412 -0.07505745 0.022927873 -0.041459277 0.39604118 -0.038363867 -0.2748324 0.014878176
-0.16677177 -0.10757162 0.052200638 -0.08926378 -0.18859568 0.1001686 0.22118935 -0.119784355
0.09182733 0.08049431 0.06931502 0.16824336 -0.037315644 0.18661311 0.13536213 0.06395726
0.29945034 -0.045227963 0.16066286 -0.07496938 0.11340259 -0.039257538 0.20599656 -0.088756114
0.016168766 0.28202087 -0.17211643 -0.05119949 0.35464782 -0.060283605 0.29665178 0.026577557
-0.0025212863 0.08734577 0.27382615 0.033995904 -0.14639905 -0.055078108 -0.17800222 0.055249617
-0.24460292 -0.298474 0.021463176 -0.25453734 -0.16400596 0.09311299 0.066528685 -0.05192937
-0.02152815 0.20462006 -0.10545403 -0.09078727 -0.14423409 0.053082302 -0.13805035 -0.24114518
-0.22398119 0.04097015

proj.bias f4 [3]
00000000: 2c0e 7bbd 964f 32be 40d6 79bd
-0.061292812 -0.17413172 -0.06099534
