flowMapNetwork/trainedModels/trained_model_SIR_20240326_103713.pt (torch, 5526 bytes, 11 tensors)

seq.0.weight f4 [10, 1]
0	0x3f800000	1.0
1	0x3f800000	1.0
2	0x3f800000	1.0
3	0x3f800000	1.0
4	0x3f800000	1.0
5	0x3f800000	1.0
6	0x3f800000	1.0
7	0x3f800000	1.0
8	0x3f800000	1.0
9	0x3f800000	1.0

seq.0.bias f4 [10]
0	0xbfc90fdb	-1.5707964
1	0x3fc90fdb	1.5707964
2	0x3fc90fdb	1.5707964
3	0xbfc90fdb	-1.5707964
4	0x3fc90fdb	1.5707964
5	0x3fc90fdb	1.5707964
6	0x3fc90fdb	1.5707964
7	0x3fc90fdb	1.5707964
8	0xbfc90fdb	-1.5707964
9	0xbfc90fdb	-1.5707964

seq.2.weight f4 [4, 10]
0	0xbdf12ee0	-0.11776519
1	0xbe4392b6	-0.19098935
2	0xbd591b78	-0.053004712
3	0xbe0bacf1	-0.1364019
4	0xbdcf8894	-0.10133472
5	0x3c781400	0.015141487
6	0x3e410952	0.18851212
7	0x3e3001ac	0.17188138
8	0xbe9e461f	-0.30912873
9	0x3e48bdae	0.19603607
10	0x3db4ecf8	0.08834261
11	0x3e99944d	0.29995957
12	0x3e55bd1e	0.20872924
13	0xbe938563	-0.28812703
14	0xbe99f1af	-0.30067202
15	0xbe1c2ffd	-0.15252681
16	0x3e8e2c81	0.2776833
17	0xbd57c068	-0.052673727
18	0x3e0a94a4	0.13533264
19	0xbe167b48	-0.14695466
20	0x3e9ede1d	0.31028834
21	0xbe0901ae	-0.13379547
22	0x3e72d6ae	0.23714706
23	0x3b756900	0.0037446618
24	0xbe2a97b2	-0.1665943
25	0x3e267266	0.16254577
26	0xbe2be382	-0.16786006
27	0x3dbe78ec	0.09300408
28	0xbdbb0256	-0.09131305
29	0xbd0e0188	-0.03466943
30	0xbe9ba832	-0.3040176
31	0xbe1a63e0	-0.15077162
32	0x3e2fb6d8	0.17159593
33	0xbd9d6cdc	-0.07686779
34	0x3ea144dd	0.3149785
35	0x3e81c8b9	0.25348452
36	0xbc7298c0	-0.014806926
37	0xbe58247c	-0.21107668
38	0x3e453146	0.19257078
39	0x3dc8ff78	0.09814352

lift.weight f4 [10, 4]
0	0x3fb1e5b9	1.3898231
1	0xbf01b9a0	-0.50673866
2	0xbd21e625	-0.039526124
3	0x3db0e417	0.08637255
4	0xbe71ccaf	-0.23613237
5	0xbeff6994	-0.49885237
6	0x3cc40ec0	0.023932815
7	0x3e413515	0.18867905
8	0xbf476bd0	-0.77898884
9	0x3edcc6ce	0.43120426
10	0xbc2acb5b	-0.01042446
11	0xbe69f1f5	-0.22846206
12	0x3f7d9fca	0.99071944
13	0xc09b5ce2	-4.855088
14	0xbb81be7c	-0.003959475
15	0x3e921bd8	0.28536868
16	0xbfcd5a8b	-1.6043257
17	0x3d77fe51	0.06054527
18	0x3aedb7c1	0.0018136428
19	0x3e25b448	0.16182053
20	0x3e1d41b6	0.15357098
21	0xbf4d02b5	-0.80082256
22	0x3c2563ab	0.0100945635
23	0xbdd964f0	-0.106149554
24	0xbe7fced0	-0.24981236
25	0xbf872fa5	-1.0561415
26	0xbdc20e83	-0.09475424
27	0xbdcf4cac	-0.10122046
28	0xbe983774	-0.29729807
29	0xbf4bd13e	-0.79616153
30	0x3e1e8cf4	0.15483457
31	0xbda739f5	-0.08165351
32	0x3dd9ee91	0.10641206
33	0x3fa87324	1.3160138
34	0x3a964b9b	0.0011466624
35	0x3e348356	0.17628226
36	0x3f7d998e	0.9906243
37	0x3fbe9c52	1.4891455
38	0x3ccbd791	0.024883064
39	0x3c6aec5d	0.01433858

lift.bias f4 [10]
0	0x3dc6ae0b	0.09701165
1	0xbde02f43	-0.109465145
2	0x3f56a99d	0.8385256
3	0xbf970a20	-1.1799965
4	0xbecb8190	-0.39747286
5	0x3efd4887	0.49469396
6	0x3ee99009	0.45617703
7	0x3eff05c9	0.498091
8	0xbe821c86	-0.25412387
9	0xbf2f9bec	-0.6859729

linears.0.weight f4 [10, 10]
0	0xbf3365e2	-0.70077336
1	0x3ba3593a	0.004985002
2	0xbd373c49	-0.044735227
3	0xbf3e50f9	-0.74342304
4	0x3f793c7c	0.97357917
5	0xbef9bd95	-0.48777452
6	0xbeb79214	-0.35853636
7	0xbefcd69e	-0.4938249
8	0xbe84292b	-0.2581266
9	0x3ef37047	0.47546598
10	0x3d930d29	0.071802445
11	0xbda91b92	-0.08257212
12	0x3f361893	0.7113125
13	0x3ed4b05a	0.41540796
14	0x3ecf4342	0.40481
15	0x3ea83677	0.32854053
16	0x3f12b7e6	0.57311857
17	0x3f14fcc4	0.5819819
18	0xbdb9eae1	-0.09078003
19	0xbf3bd797	-0.7337584
20	0xbe8701ac	-0.26368463
21	0x3c923f3d	0.01785242
22	0x3e7de031	0.24792553
23	0x3e6e24f4	0.23256284
24	0x3f1815a9	0.5940805
25	0x3c9e79bb	0.019345155
26	0x3eda28a1	0.42609122
27	0x3e6e4e38	0.23272026
28	0xbec27689	-0.3798106
29	0x3db30295	0.08740727
30	0xbe8316f0	-0.25603437
31	0x3ec53aa3	0.385213
32	0xbdf59683	-0.119915985
33	0xbec207ee	-0.37896675
34	0xbed24ed8	-0.41075778
35	0xbdf602a3	-0.12012222
36	0xbe377890	-0.17917085
37	0xbe7b1b04	-0.24522024
38	0x3defd98c	0.11711416
39	0xbd7ad7e2	-0.06124104
40	0xbefdfca7	-0.4960682
41	0xbe41ae52	-0.18914154
42	0xbe2084ba	-0.15675631
43	0x3ed6d632	0.41960293
44	0xbee787f6	-0.45220917
45	0x3d356e78	0.044294804
46	0x3e4ba078	0.19885433
47	0x3e0bc17c	0.13648027
48	0xbea8be80	-0.3295784
49	0xbe4493b5	-0.19196971
50	0x3eff375a	0.49846917
51	0x3f04491d	0.5167406
52	0xbe831bd8	-0.2560718
53	0x3da12128	0.07867652
54	0x3ed692f2	0.41908985
55	0x3ebc4ade	0.3677587
56	0x3ec85738	0.39129043
57	0x3e2dae2a	0.1696097
58	0xbe9c6438	-0.3054521
59	0xbdce6a33	-0.1007885
60	0xbb99910d	-0.004686481
61	0xbcb615ab	-0.022227129
62	0xbf4685ec	-0.775481
63	0xbd323aa9	-0.043512974
64	0xbeb1f7c5	-0.34759346
65	0x3e945e78	0.28978324
66	0xbe66e028	-0.22546446
67	0xbe648a04	-0.22318274
68	0xbdbf1ee2	-0.09332062
69	0xbe9afaba	-0.30269414
70	0xbd50b179	-0.0509505
71	0x3eb1683c	0.34649837
72	0x3e8b11c2	0.27161986
73	0xbd680186	-0.056642078
74	0x3f2edca8	0.68305445
75	0xbeee8f8d	-0.46593896
76	0xbe984856	-0.29742688
77	0xbe003319	-0.12519492
78	0x3e5e1c75	0.21690543
79	0xbebf210c	-0.373299
80	0xbe9108a6	-0.2832691
81	0xbf86dd8c	-1.0536361
82	0xbe82b482	-0.25528342
83	0xbd031cc5	-0.03200986
84	0x3e87e99f	0.26545426
85	0x3ea09977	0.31367084
86	0x3e710219	0.23535956
87	0x3dbc3624	0.09190014
88	0xbd90d2b1	-0.07071436
89	0x3ec0340c	0.3753971
90	0xbd64e7ad	-0.055885006
91	0xbdd19b8a	-0.10234745
92	0xbe186c3d	-0.1488504
93	0x3ee07b40	0.43844032
94	0x3d706eaa	0.058699287
95	0x3e8a8c5e	0.27060217
96	0x3ec86134	0.3913666
97	0x3d2143e3	0.039371382
98	0xbcf56ca3	-0.029959029
99	0x3ec68fed	0.38781682

linears.0.bias f4 [10]
0	0xbef1e4aa	-0.4724477
1	0x3eea9ab7	0.45821163
2	0xbea1afe3	-0.31579503
3	0xbe7f8baa	-0.24955621
4	0x3e260b63	0.16215281
5	0xbd9e5b42	-0.0773225
6	0xbbe6840c	-0.007034784
7	0x3e03dbc8	0.12876809
8	0x3eb7b29b	0.35878453
9	0x3ebecf16	0.3726737

linears.1.weight f4 [10, 10]
0	0xbeec35f0	-0.461349
1	0xbed23ebe	-0.41063493
2	0x3e97ca4d	0.2964653
3	0xbd0f7094	-0.035019472
4	0xbe577136	-0.2103928
5	0x3e718a0b	0.23587815
6	0xbe296830	-0.1654365
7	0xbce67c62	-0.028135482
8	0x3e462440	0.19349766
9	0xbef3c1e5	-0.47608867
10	0xbe9f564b	-0.31120524
11	0xbdb80f9d	-0.08987353
12	0x3e823c04	0.25436413
13	0x3e16f578	0.14742076
14	0xbe36429f	-0.17798851
15	0xbdf30a9a	-0.118672565
16	0xbe327031	-0.1742561
17	0x3b9c7820	0.004775062
18	0xbc79e9d4	-0.015253503
19	0x3e2baf55	0.16766103
20	0x3ea475fb	0.32121262
21	0xbedbd97a	-0.4293936
22	0x3d888de4	0.066676885
23	0x3ee94d87	0.4556696
24	0xbe3a7192	-0.18207386
25	0xbdc92474	-0.09821406
26	0x3e91f626	0.2850811
27	0x3e4eb4b2	0.20186117
28	0xbec48914	-0.38385832
29	0xbe65f591	-0.22456957
30	0x3ef66746	0.48125666
31	0x3f00a45b	0.50250787
32	0xbe8220e4	-0.2541572
33	0x3e816144	0.2526952
34	0x3e535398	0.20637357
35	0xbf09c493	-0.53815573
36	0x3e05d45f	0.13069294
37	0xbe9cb0aa	-0.30603534
38	0x3ecb0259	0.3965023
39	0x3a9b6f90	0.001185881
40	0xbcd08215	-0.025452653
41	0xbdc6dec3	-0.09710457
42	0x3d1d2bef	0.038371976
43	0xbdc6124a	-0.09671457
44	0xbd20f022	-0.03929151
45	0x3c8a10a4	0.016853638
46	0xbe0a1c60	-0.13487387
47	0xbdc295a2	-0.095011964
48	0x3d6329e9	0.05545989
49	0x3e13ab98	0.14420927
50	0xbeb73687	-0.3578379
51	0xbc5a0363	-0.0133064715
52	0x3e7ff31a	0.2499508
53	0xbe35b8fb	-0.17746346
54	0x3e81c783	0.25347528
55	0xbec8250c	-0.39090765
56	0xbe8042a6	-0.2505085
57	0x3e43426a	0.19068304
58	0x3d837a79	0.06419844
59	0x3ea6a959	0.32551077
60	0xbe945f00	-0.2897873
61	0xbeacf701	-0.337822
62	0x3e78bff1	0.2429197
63	0x3f4ff42b	0.81231946
64	0xbec0a1d0	-0.37623453
65	0xbef4e807	-0.47833273
66	0x3f1df73a	0.6170536
67	0xbf3d336e	-0.739066
68	0x3dcaeb0d	0.09908114
69	0xbef0e303	-0.47048196
70	0xbec26860	-0.37970257
71	0xbddc5230	-0.107578635
72	0x3c63af5e	0.013896791
73	0xbe27b1cd	-0.1637642
74	0x3ef49257	0.47767898
75	0xbda26ea5	-0.0793126
76	0xbed480cf	-0.41504523
77	0x3ec2a531	0.38016656
78	0x3e3aa98a	0.18228737
79	0x3dcb3007	0.0992127
80	0xbe46eb9e	-0.19425818
81	0xbea51a8f	-0.32246825
82	0xbe89c18a	-0.2690547
83	0xbeaa5c0c	-0.3327335
84	0xbddcad5a	-0.10775252
85	0xbf13f59a	-0.57796633
86	0xbf0333f1	-0.5125113
87	0xbea1cdd9	-0.31602362
88	0x3efb03f9	0.49026468
89	0x3e1e7957	0.15475975
90	0xbd95b1bc	-0.07309291
91	0xbd117d1b	-0.0355197
92	0xbe2c8e46	-0.16851148
93	0x3dd92b75	0.10603992
94	0xbd151231	-0.0363943
95	0xbcba486a	-0.022739608
96	0xbe03cb6d	-0.1287057
97	0x3e5b3484	0.21406752
98	0xbdbaf01d	-0.09127829
99	0xbd745414	-0.059650496

linears.1.bias f4 [10]
0	0x3dce335d	0.100683905
1	0xbd653100	-0.055954933
2	0x3e316476	0.17323479
3	0xbda5e4cf	-0.081002824
4	0x3d5a6702	0.053320892
5	0xbe0a5a60	-0.13511038
6	0xbec413ad	-0.3829626
7	0xbe66e71c	-0.22549099
8	0x3d283a9a	0.04107151
9	0xbdeb6460	-0.114937544

proj.weight f4 [3, 10]
0	0xbe6f75f0	-0.23384833
1	0xbf2aab69	-0.666678
2	0xbe03c993	-0.12869863
3	0x3e7b3885	0.24533279
4	0xbd8bedc4	-0.068324596
5	0xbc6b3473	-0.014355767
6	0xbe5afab5	-0.213847
7	0xbce19d5a	-0.027540851
8	0xbe29e2b5	-0.16590388
9	0x3d48d108	0.049027473
10	0x3e53f33a	0.20698252
11	0x3eaa4224	0.33253586
12	0xbe801e9b	-0.2502335
13	0xbe959297	-0.29213402
14	0x3d044178	0.032289
15	0x3da247d2	0.07923855
16	0x3ebf985a	0.37420923
17	0x3e09002c	0.13378972
18	0xbda504dc	-0.080575675
19	0xbd6ccefa	-0.057814576
20	0x3d95d3e3	0.07315805
21	0x3e6858f2	0.2269018
22	0x3ebf3969	0.37348488
23	0x3d2d012f	0.042237457
24	0x3d43d678	0.047811955
25	0x3d161670	0.03664249
26	0xbe289e70	-0.16466689
27	0xbe409980	-0.18808556
28	0x3e7b3553	0.2453206
29	0x3d595cc0	0.05306697

proj.bias f4 [3]
0	0xbe28007e	-0.16406438
1	0x3d6b0d0c	0.05738549
2	0x3dca9df3	0.09893408
