flowMapNetwork/trainedModels/trained_model_SIR_20240326_114920.pt (torch, 7602 bytes, 15 tensors)

seq.0.weight f4 [10, 1]
1.0 1.0 1.0 1.0 1.0 1.0 1.0 1.0
1.0 1.0
00000000: 0000 803f 0000 803f 0000 803f 0000 803f
00000010: 0000 803f 0000 803f 0000 803f 0000 803f
00000020: 0000 803f 0000 803f

seq.0.bias f4 [10]
-1.5707964 1.5707964 1.5707964 -1.5707964 1.5707964 1.5707964 1.5707964 1.5707964
-1.5707964 -1.5707964
00000000: db0f c9bf db0f c93f db0f c93f db0f c9bf
00000010: db0f c93f db0f c93f db0f c93f db0f c93f
00000020: db0f c9bf db0f c9bf

seq.2.weight f4 [4, 10]
-0.11776519 -0.19098935 -0.053004712 -0.1364019 -0.10133472 0.015141487 0.18851212 0.17188138
-0.30912873 0.19603607 0.08834261 0.29995957 0.20872924 -0.28812703 -0.30067202 -0.15252681
0.2776833 -0.052673727 0.13533264 -0.14695466 0.31028834 -0.13379547 0.23714706 0.0037446618
-0.1665943 0.16254577 -0.16786006 0.09300408 -0.09131305 -0.03466943 -0.3040176 -0.15077162
0.17159593 -0.07686779 0.3149785 0.25348452 -0.014806926 -0.21107668 0.19257078 0.09814352
00000000: e02e f1bd b692 43be 781b 59bd f1ac 0bbe
00000010: 9488 cfbd 0014 783c 5209 413e ac01 303e
00000020: 1f46 9ebe aebd 483e f8ec b43d 4d94 993e
00000030: 1ebd 553e 6385 93be aff1 99be fd2f 1cbe
00000040: 812c 8e3e 68c0 57bd a494 0a3e 487b 16be
00000050: 1dde 9e3e ae01 09be aed6 723e 0069 753b
00000060: b297 2abe 6672 263e 82e3 2bbe ec78 be3d
00000070: 5602 bbbd 8801 0ebd 32a8 9bbe e063 1abe
00000080: d8b6 2f3e dc6c 9dbd dd44 a13e b9c8 813e
00000090: c098 72bc 7c24 58be 4631 453e 78ff c83d

lift.weight f4 [10, 4]
-0.19358459 -1.4557941 1.5144938 0.07029177 0.03725177 0.7739797 -1.5980977 -0.0065043084
-0.36776 0.8463751 -0.34505284 -0.27583706 -0.7781957 1.2055756 0.12834011 0.17779116
-1.3243175 1.7402856 -0.8211439 0.12542045 0.45262742 0.28996626 -1.2783219 -0.13007869
-1.4989752 1.1646819 -0.24986939 -0.07143721 -1.0607827 -0.7999444 2.158104 -0.12935032
0.7274933 -1.4500535 1.3126587 0.06640214 -2.0542653 2.1381755 -0.9858024 0.18974482
00000000: 0a3b 46be 7657 babf efda c13f 22f5 8f3d
00000010: 5095 183d 8923 463f 778e ccbf 1822 d5bb
00000020: 0a4b bcbe 0aac 583f c4aa b0be 843a 8dbe
00000030: d537 47bf 4d50 9a3f 976b 033e e30e 363e
00000040: 3c83 a9bf aec1 de3f 7d36 52bf 386e 003e
00000050: c8be e73e 7576 943e 0da0 a3bf 5933 05be
00000060: 6bde bfbf 4c14 953f c3dd 7fbe ac4d 92bd
00000070: bac7 87bf 28c9 4cbf 601e 0a40 6974 04be
00000080: 003d 3a3f 5a9b b9bf 3305 a83f d8fd 873d
00000090: 1579 03c0 ded7 0840 8c5d 7cbf 774c 423e

lift.bias f4 [10]
0.0134893665 -0.046128888 0.7102053 -0.21011503 -0.05661217 0.20593518 0.29654214 0.3824798
-0.14332467 -0.91802967
00000000: 8102 5d3c a5f1 3cbd 04d0 353f 6528 57be
00000010: 2ae2 67bd ace0 523e 5fd4 973e 64d4 c33e
00000020: b4c3 12be fe03 6bbf

linears.0.weight f4 [10, 10]
0.835694 -0.03029182 0.3725984 -0.5343724 -0.3889012 0.08119258 -0.2648354 0.5837743
0.3994192 0.039801553 -0.70269364 0.49896938 0.9186913 0.44228935 1.8536341 0.5457812
0.94821453 -0.06329994 -1.1447179 -0.58922493 0.061970238 0.25489843 -0.20984386 0.534967
0.35827842 0.14190097 0.22468291 0.19033186 0.1266002 0.53741914 0.04293213 0.7082122
-0.8218023 0.26113456 -0.836914 -0.34446126 -0.5710478 -0.1511679 0.17023501 -0.26507697
0.8762942 0.20056866 0.0153573835 0.5700466 -0.27388817 0.37269047 -0.15259366 0.04344276
-0.22460954 -1.54977 -0.09933404 0.29479873 0.009146812 0.12347838 0.7755706 0.22161157
0.25968537 -0.26734227 -0.3064333 0.5553451 -0.43830463 0.07037044 -0.3248414 -0.11382044
-0.4225766 0.30346468 -0.31579396 -0.39128146 -0.0878122 -0.4328159 1.1431583 0.33359197
-0.23902538 0.23987077 0.45722246 0.02116507 0.4704009 1.7363459 0.12441654 -0.93194234
0.4212433 -0.32884216 0.14816363 -0.11912909 -0.15226346 -0.17458378 -0.2561678 -0.08100613
0.21288453 -0.46357223 -0.17506222 0.101137266 -0.085175276 0.09682656 1.2040415 0.1434055
0.3230282 -0.3563456 -0.25672227 0.6589022
00000000: 0bf0 553f 8d26 f8bc 38c5 be3e a1cc 08bf
00000010: 0f1e c7be 4c48 a63d 8198 87be 3c72 153f
00000020: ac80 cc3e f406 233d bbe3 33bf ea78 ff3e
00000030: 5a2f 6b3f c073 e23e e243 ed3f 51b8 0b3f
00000040: 30be 723f 66a3 81bd 1e86 92bf 72d7 16bf
00000050: 81d4 7d3d 0c82 823e 4fe1 56be 99f3 083f
00000060: 4570 b73e 7d4e 113e 4713 663e 5be6 423e
00000070: 7ca3 013e 4d94 093f 9ad9 2f3d 654d 353f
00000080: a361 52bf 6eb3 853e ff3f 56bf 3a5d b0be
00000090: 3030 12bf c2cb 1abe 1652 2e3e 2bb8 87be
000000a0: d154 603f df61 4d3e 899d 7b3c 93ee 113f
000000b0: 123b 8cbe 49d1 be3e 8341 1cbe 09f1 313d
000000c0: 0b00 66be dd5e c6bf a56f cbbd dcef 963e
000000d0: 83dc 153c 3ce2 fc3d cb8b 463f 25ee 623e
000000e0: 7bf5 843e 16e1 88be d3e4 9cbe 192b 0e3f
000000f0: 7769 e0be 611e 903d 9d51 a6be b11a e9bd
00000100: f65b d8be b95f 9b3e bfaf a1be 0b56 c8be
00000110: e2d6 b3bd 0c9a ddbe 0353 923f 91cc aa3e
00000120: 12c3 74be afa0 753e 1019 ea3e 5e62 ad3c
00000130: 63d8 f03e 9540 de3f 19ce fe3d c693 6ebf
00000140: 34ad d73e 005e a8be 35b8 173e f4f9 f3bd
00000150: f4ea 1bbe 17c6 32be 6d28 83be 8be6 a5bd
00000160: 67fe 593e 5759 edbe 8343 33be 0e21 cf3d
00000170: 6070 aebd 014d c63d 081e 9a3f e4d8 123e
00000180: f463 a53e ee72 b6be 1a71 83be d1ad 283f

linears.0.bias f4 [10]
0.0011106811 0.635931 -0.24738835 -0.24639657 0.5274142 -0.15233645 -0.041959044 0.48696685
0.28412548 0.24478889
00000000: 4694 913a 60cc 223f 5f53 7dbe 624f 7cbe
00000010: 9e04 073f 16fe 1bbe 3fdd 2bbd b853 f93e
00000020: e578 913e f0a9 7a3e

linears.1.weight f4 [10, 10]
-0.11537972 -0.36472258 0.24632984 -0.0141943125 -0.19009805 -0.09633269 -0.3932832 0.25428742
0.23086688 -0.5916456 -0.116479 0.13752948 0.19855171 -0.10456694 -0.44296467 0.09242672
-0.45344472 0.054985125 -0.28851157 0.48731518 0.9225116 -0.26856562 0.08461084 0.27718592
0.010915949 -0.28065056 -0.8034896 -0.049242437 -0.022271752 -0.47232208 0.29734263 -0.26096836
-0.5698278 0.40957338 0.92778784 -0.41210058 0.80514264 0.00046471166 0.55592775 0.5163758
0.35395607 0.28596237 -0.028605597 0.4535514 -0.33650377 -0.08902589 0.82531166 0.2631972
-0.13635196 -0.30880105 -0.4087606 0.53291214 0.57905436 0.23092662 0.055790618 -0.20488979
-0.32570508 0.12613215 -0.14488494 -0.084702015 -0.12658624 -0.47602436 0.21703672 0.50975674
-0.08945745 -0.3057902 0.17003982 -0.20621228 -0.27802724 -0.44232842 0.1554498 0.06651166
0.10482259 -0.32416743 -0.22311962 0.13229716 -0.9245924 0.37061915 0.0011736815 0.8439019
0.014609119 -0.2141164 -0.26708657 -0.11771476 0.77544343 -1.0359371 -0.20018204 0.44053838
0.3638894 0.028697178 -0.2871071 -0.27909347 -0.07381444 0.01831416 -0.06361476 -0.124604635
-0.40462655 0.30018306 -0.20455088 -0.17729135
00000000: 344c ecbd ebbc babe e43d 7c3e 438f 68bc
00000010: 10a9 42be 134a c5bd 6a5c c9be f631 823e
00000020: 5e68 6c3e 1676 17bf 8b8c eebd 87d4 0c3e
00000030: 2451 4b3e 3127 d6bd 44cc e2be 384a bd3d
00000040: e829 e8be 1538 613d cab7 93be 6081 f93e
00000050: b829 6c3f 6f81 89be 7348 ad3d 50eb 8d3e
00000060: cfd8 323c 6eb1 8fbe 7fb1 4dbf 70b2 49bd
00000070: 4073 b6bc 33d4 f1be 4b3d 983e a59d 85be
00000080: 3ce0 11bf 9ab3 d13e 8183 6d3f d9fe d2be
00000090: d41d 4e3f 8ba4 f339 4851 0e3f 3431 043f
000000a0: bb39 b53e a969 923e 4956 eabc e437 e83e
000000b0: 394a acbe 3553 b6bd a047 533f c9c1 863e
000000c0: d99f 0bbe 2c1b 9ebe 1249 d1be ee6c 083f
000000d0: e83c 143f 0778 6c3e b484 643d a1ce 51be
000000e0: d1c2 a6be c928 013e b85c 14be 4078 adbd
000000f0: d39f 01be 77b9 f3be e03e 5e3e 6b7f 023f
00000100: 7835 b7bd 8890 9cbe eb1e 2e3e 5029 53be
00000110: 9659 8ebe df78 e2be 3b2e 1f3e 4437 883d
00000120: 3aad d63d 46f9 a5be 7879 64be e878 073e
00000130: 16b2 6cbf cbc1 bd3e 37d6 993a f409 583f
00000140: 165b 6f3c 5441 5bbe 92bf 88be 7014 f1bd
00000150: 7683 463f 9699 84bf 85fc 4cbe 3f8e e13e
00000160: b64f ba3e 5816 eb3c b4ff 92be 57e5 8ebe
00000170: 062c 97bd 9407 963c 7548 82bd b730 ffbd
00000180: 362b cfbe 98b1 993e c975 51be dd8b 35be

linears.1.bias f4 [10]
0.13967878 0.08923689 0.16930227 0.20164509 -0.03989418 -0.13554782 -0.2729822 -0.1623037
-0.18463147 0.08960557
00000000: f407 0f3e d5c1 b63d 935d 2d3e 0d7c 4e3e
00000010: 1468 23bd 0ccd 0abe 53c4 8bbe f132 26be
00000020: 0810 3dbe 2083 b73d

linears.2.weight f4 [10, 10]
-0.34743577 -0.050842807 -0.38105282 0.44386876 -0.24399695 -0.14309955 -0.17082168 -0.034456074
-0.37364182 0.13583604 0.18118629 -0.088310175 -0.08502101 -0.07336953 0.56608194 0.67894816
0.3978837 0.10357785 0.18502595 -0.7286431 -0.48173755 -0.04003237 0.1638239 -0.09044078
0.100713186 -0.08369173 -0.1989943 0.07836307 0.14903721 0.14806798 -0.35923773 0.22138923
-0.15050511 -0.15750717 0.016805073 -0.34840786 -0.108768106 0.19172002 -0.060289744 -0.017733067
-0.3773585 -0.15005302 0.37615246 -0.11239386 -0.26031232 0.07480969 0.17716497 0.105708495
0.045146473 -0.056903634 -0.040423326 0.27611673 0.14958227 -0.4149578 0.2096985 -0.33645642
0.12728885 0.0077549005 0.39963603 0.16966052 -0.03534829 0.03688003 0.16457947 -0.35250592
0.08295974 -0.06933037 -0.16411303 0.1164639 0.38877657 0.14113756 0.04095122 0.2630082
0.049914986 -0.287516 0.10962984 0.40069485 -0.3306134 0.050812498 -0.2093572 -0.13691755
-0.2907438 0.2664804 0.21902518 0.4887739 0.12957592 0.29121932 0.032810465 -0.15448883
-0.059687838 -0.18904017 0.09396241 -0.20844136 -0.04926823 -0.052384023 0.08596407 -0.056267995
0.14091721 0.1229378 0.37803608 -0.12679613
00000000: 1ae3 b1be 8c40 50bd 5b19 c3be c442 e33e
00000010: 56da 79be b088 12be e1eb 2ebe d021 0dbd
00000020: fb4d bfbe 9a18 0b3e e688 393e f7db b4bd
00000030: 7f1f aebd c442 96bd bfea 103f 8ccf 2d3f
00000040: 6ab7 cb3e a020 d43d 7177 3d3e 5b88 3abf
00000050: 4ea6 f6be fbf8 23bd 74c1 273e 0439 b9bd
00000060: b742 ce3d 9266 abbd 29c5 4bbe d17c a03d
00000070: 369d 183e 229f 173e 02ee b7be dcb3 623e
00000080: 031e 1abe 8f49 21be cbaa 893c 8462 b2be
00000090: d0c1 debd 4152 443e 61f2 76bd f044 91bc
000000a0: 2235 c1be 80a7 19be 0e97 c03e c12e e6bd
000000b0: a847 85be d335 993d bc6a 353e b27d d83d
000000c0: 82eb 383d c913 69bd ee92 25bd 2c5f 8d3e
000000d0: 182c 193e 5975 d4be 34bb 563e 0444 acbe
000000e0: 0258 023e d21c fe3b 189d cc3e 7dbb 2d3e
000000f0: 5ec9 10bd 840f 173d 8587 283e a87b b4be
00000100: cce6 a93d 15fd 8dbd 3f0d 28be a084 ee3d
00000110: b90d c73e 5d86 103e 77bc 273d 03a9 863e
00000120: a873 4c3d 4c35 93be 9c85 e03d e027 cd3e
00000130: 2946 a9be c420 503d bc61 56be 1d34 0cbe
00000140: 5fdc 94be 1e70 883e 2348 603e 9340 fa3e
00000150: 8daf 043e b31a 953e 4464 063d 5232 1ebe
00000160: 3c7b 74bd bf93 41be 5d6f c03d a771 55be
00000170: 7ccd 49bd a190 56bd ee0d b03d 4579 66bd
00000180: 9a4c 103e d0c6 fb3d f28d c13e d8d6 01be

linears.2.bias f4 [10]
-0.13078132 0.19839498 -0.2669149 0.12643503 0.09745727 0.21274948 -0.20044611 0.25728905
-0.25313357 -0.27223402
00000000: 8aeb 05be 0e28 4b3e 12a9 88be 2f78 013e
00000010: ad97 c73d 00db 593e bf41 4dbe 64bb 833e
00000020: b99a 81be 4262 8bbe

linears.3.weight f4 [10, 10]
0.25339347 -0.08238499 0.4028967 -0.021246582 0.26984012 0.006480418 -0.31330392 -0.34129667
0.64671105 -0.3785454 -0.12556547 0.0050141364 0.13957097 0.1912565 0.025451753 -0.10451702
0.010799072 -0.045156203 -0.08928734 -0.18505529 0.041127957 -0.055551883 0.26828867 0.2984121
0.27411497 0.10026278 -0.12015072 0.17439649 0.114081405 -0.23364332 0.19936469 -0.06772374
-0.14861791 0.15811655 -0.16775686 -0.17511548 -0.11146281 0.45679787 -0.056331865 0.035987012
0.08517699 0.04878717 -0.07302771 -0.06384229 0.031647164 0.01855458 0.06753968 -0.065964855
0.048062097 -0.057015058 -0.14869003 -0.062050644 -0.04742743 0.13363668 0.035962842 0.0056860964
-0.09016698 -0.0022527745 0.015748678 -0.008404933 0.00583559 -0.0055569243 -0.25593728 0.06628235
0.06612438 -0.58982944 -0.30727097 -0.3230819 -0.00662397 0.045733593 -0.1896008 -0.058030106
0.048423372 0.17214221 0.0054787584 -0.20509526 -0.053657174 0.011719673 -0.042521145 -0.0019143235
0.044528354 -0.018670982 0.17341004 0.25790593 0.36636585 -0.18116651 -0.17034023 -0.12931667
0.1300273 -0.23482317 0.1218207 -0.03285828 0.055816557 -0.14698154 -0.09290033 0.0064898925
-0.10534132 0.2161326 0.019212956 0.085077606
00000000: cabc 813e 76b9 a8bd 7a48 ce3e 500d aebc
00000010: 7c28 8a3e b059 d43b 5f69 a0be 70be aebe
00000020: db8e 253f b4d0 c1be 3c94 00be a04d a43b
00000030: b1eb 0e3e bed8 433e 3280 d03c 050d d6bd
00000040: 97ee 303c b6f5 38bd 48dc b6bd 227f 3dbe
00000050: ca75 283d 5f8a 63bd 225d 893e 79c9 983e
00000060: cc58 8c3e 9356 cd3d 9511 f6bd fe94 323e
00000070: 83a3 e93d 3240 6fbe 4226 4c3e bfb2 8abd
00000080: 4b2f 18be 4ee9 213e 74c8 2bbe 7951 33be
00000090: 9d46 e4bd 69e1 e93e 3ebc 66bd 1e67 133d
000000a0: 4671 ae3d 0ed5 473d 8d8f 95bd bfbf 82bd
000000b0: 75a0 013d c6ff 973c 3e52 8a3d 9518 87bd
000000c0: c3dc 443d 9f88 69bd 3342 18be d128 7ebd
000000d0: 4443 42bd 0ed8 083e c64d 133d 6f52 ba3b
000000e0: 77a9 b8bd 49a3 13bb 5f03 813c d8b4 09bc
000000f0: 7a38 bf3b dc16 b6bb 360a 83be 0abf 873d
00000100: 386c 873d 10ff 16bf 9f52 9dbe fe6a a5be
00000110: e30d d9bb 2653 3b3d b626 42be fab0 6dbd
00000120: 9657 463d 0c46 303e 2887 b33b 7e04 52be
00000130: a0c7 5bbd df03 403c a72a 2ebd 0aea faba
00000140: 5d63 363d e3f3 98bc 6792 313e 3f0c 843e
00000150: 4e94 bb3e b783 39be ab6d 2ebe 976b 04be
00000160: e025 053e 7c75 70be 227d f93d 6796 06bd
00000170: e79f 643d 5482 16be 8742 bebd 2aa9 d43b
00000180: 31bd d7bd dd51 5d3e 7d64 9d3c 2b3d ae3d

linears.3.bias f4 [10]
-0.035715085 0.024293823 0.25846943 -0.031220201 -0.009505831 0.018524209 -0.007189496 0.01833848
-0.036911167 -0.020054251
00000000: fb49 12bd d703 c73c 1b56 843e 82c1 ffbc
00000010: 58be 1bbc 15c0 973c dd95 ebbb 943a 963c
00000020: 2a30 17bd d048 a4bc

proj.weight f4 [3, 10]
-0.11008875 0.008176351 -0.017693197 -0.07743131 -0.009193293 0.06193004 -0.14097966 0.015159393
0.07451192 -0.041704237 0.15412909 -0.055469558 -0.34234405 -0.038222842 0.012171848 -0.009777266
0.012053279 -0.028090784 0.12962581 -0.009736227 -0.014176909 0.06715559 -0.10991177 0.25402766
-0.012501938 0.019322917 -0.10799526 0.038258567 0.19816287 -0.0064300396
00000000: 3676 e1bd 1af6 053c 53f1 90bc 4f94 9ebd
00000010: 779f 16bc 5baa 7d3d f95c 10be 1a5f 783c
00000020: b599 983d 10d2 2abd 04d4 1d3e 0c34 63bd
00000030: b847 afbe 8e8f 1cbd 6e6c 473c d330 20bc
00000040: 1e7b 453c a51e e6bc a1bc 043e b284 1fbc
00000050: 4446 68bc df88 893d 6c19 e1bd ea0f 823e
00000060: eed4 4cbc 184b 9e3c 9e2c ddbd 04b5 1c3d
00000070: 35eb 4a3e 15b3 d2bb

proj.bias f4 [3]
-0.007381409 0.04238493 0.09858526
00000000: bfdf f1bb d29b 2d3d 12e7 c93d
