flowMapNetwork/trainedModels/trained_model_SIR_20240424_161900.pt (torch, 7602 bytes, 15 tensors)

seq.0.weight f4 [10, 1]
00000000: 0000 803f 0000 803f 0000 803f 0000 803f
00000010: 0000 803f 0000 803f 0000 803f 0000 803f
00000020: 0000 803f 0000 803f
1.0 1.0 1.0 1.0 1.0 1.0 1.0 1.0
1.0 1.0

seq.0.bias f4 [10]
00000000: db0f c9bf db0f c93f db0f c93f db0f c9bf
00000010: db0f c93f db0f c93f db0f c93f db0f c93f
00000020: db0f c9bf db0f c9bf
-1.5707964 1.5707964 1.5707964 -1.5707964 1.5707964 1.5707964 1.5707964 1.5707964
-1.5707964 -1.5707964

seq.2.weight f4 [4, 10]
00000000: e02e f1bd b692 43be 781b 59bd f1ac 0bbe
00000010: 9488 cfbd 0014 783c 5209 413e ac01 303e
00000020: 1f46 9ebe aebd 483e f8ec b43d 4d94 993e
00000030: 1ebd 553e 6385 93be aff1 99be fd2f 1cbe
00000040: 812c 8e3e 68c0 57bd a494 0a3e 487b 16be
00000050: 1dde 9e3e ae01 09be aed6 723e 0069 753b
00000060: b297 2abe 6672 263e 82e3 2bbe ec78 be3d
00000070: 5602 bbbd 8801 0ebd 32a8 9bbe e063 1abe
00000080: d8b6 2f3e dc6c 9dbd dd44 a13e b9c8 813e
00000090: c098 72bc 7c24 58be 4631 453e 78ff c83d
-0.11776519 -0.19098935 -0.053004712 -0.1364019 -0.10133472 0.015141487 0.18851212 0.17188138
-0.30912873 0.19603607 0.08834261 0.29995957 0.20872924 -0.28812703 -0.30067202 -0.15252681
0.2776833 -0.052673727 0.13533264 -0.14695466 0.31028834 -0.13379547 0.23714706 0.0037446618
-0.1665943 0.16254577 -0.16786006 0.09300408 -0.09131305 -0.03466943 -0.3040176 -0.15077162
0.17159593 -0.07686779 0.3149785 0.25348452 -0.014806926 -0.21107668 0.19257078 0.09814352

lift.weight f4 [10, 4]
00000000: 4cbb 74bc acab 96bf e26b a13f 1534 d0bd
00000010: 622e 9ebe 892c 6e3e 3a3a 00bf 0d32 a5bc
00000020: fb82 263f a6de 50bf 0ddf a6be 92c6 98be
00000030: a52b 0ebf 57fb 913f e486 c83c 3f52 1e3e
00000040: a9a7 b3bf c647 e13f d2dd 58bf cc53 6b3e
00000050: 1310 543e 77b2 9d3e b84b 48bf 0996 b03d
00000060: 4b37 b8bf f935 993f 5f7a ecbe 6262 10be
00000070: bea3 e4be d4e7 2fbf 382d c33f 2c43 30be
00000080: 9505 6b3f f685 29c0 db86 ba3f d7b5 8f3e
00000090: 2386 0dc0 cb64 f83f e06e fd3d 231d 2c3e
-0.014937233 -1.177114 1.2611048 -0.10166184 -0.30894762 0.23259176 -0.50088847 -0.020165468
0.6504361 -0.81589735 -0.3259205 -0.29838997 -0.55535346 1.1404828 0.024478383 0.15461062
-1.4035541 1.7600029 -0.8471347 0.22981185 0.20709257 0.3080022 -0.7824054 0.08622367
-1.4391874 1.1969596 -0.46187112 -0.1410003 -0.44656175 -0.68713117 1.5248175 -0.17213124
0.9180539 -2.6488013 1.4572405 0.2806842 -2.211312 1.940576 0.12374663 0.1680799

lift.bias f4 [10]
00000000: 8a87 853d 1990 cb3c ffd0 f43e 9734 68be
00000010: 3838 babd ec7f 943e 4d8b 913e 987a e43e
00000020: 4e51 fabe 7f48 21bf
0.06519993 0.024848985 0.478157 -0.22676311 -0.09092754 0.29003847 0.2842659 0.44624782
-0.48890156 -0.63001245

linears.0.weight f4 [10, 10]
00000000: 033d 2ebf b830 46bd 2d71 1fbd 7ed8 d9be
00000010: 7f1e fc3d 5f9e 4f3e 8bf0 e5be 8b49 423d
00000020: d779 bfbd 2647 a6be 0a48 02bf ab3c 123e
00000030: 0db2 8c3f 87e9 cc3d ebff ad3f 6b0e c73e
00000040: ff4f 3c3f dd6f 443e 20bf 86bf bedb 89be
00000050: 08e4 823e 5f2e ccbd acc6 edbe 77c1 4b3e
00000060: 20e2 07be badc 8bbd 41ec 083f 6329 ce3e
00000070: be3c 923e 85ab 063f 3f36 f93d 97b9 803e
00000080: f2f8 d5be 9eb0 9d3d dc7e 01bf c0bb c0bc
00000090: 427e b5be 0991 733e 7ecc 3c3f a9d9 15bf
000000a0: bd29 15bf 25c0 13bd 05de d43e ce26 9e3e
000000b0: 3f72 f4be e612 813b 56b6 9bbe c30c 86bf
000000c0: 8352 ccbe b120 edbe b867 af3d 564a 853d
000000d0: 5848 12bf eec0 633c 0c78 123f b824 233e
000000e0: 89a2 80be 18f3 acbe 92a4 f5be e176 023f
000000f0: afe2 233e 0870 b2bd 4dcb 01bf 70c0 7fbd
00000100: 104e a9be 1219 bd3e c821 ecbe 7f5e babe
00000110: 4a43 f03d 850f 13bf 93b3 6fbe 49af 31bd
00000120: e374 163f 7be5 123d be63 0abe 49e7 45be
00000130: fac8 183f 7c87 163e 4833 273f 6c0f bbbe
00000140: f2e5 d83f 8ff1 6f3d 1728 2a3f 6e69 e4be
00000150: 3b9f 903d 22f3 093f c261 753d e854 ad3f
00000160: 2963 bf3e 9f3d 87bf c1f1 3f3e 7a89 4dbe
00000170: dcbb 9abe 0efe 633e 6d52 0f3f 44aa 1d3d
00000180: 150d 703c 79a6 8ebe 3862 c1be 78ae 133f
-0.68061846 -0.048386306 -0.038926292 -0.42547983 0.12310504 0.20275258 -0.44910082 0.047433417
-0.09349411 -0.32476157 -0.5089117 0.14280955 1.0991837 0.10005479 1.3593725 0.38878188
0.73559564 0.19183297 -1.0527077 -0.26925462 0.255646 -0.09969782 -0.46440637 0.1989802
-0.13269854 -0.068292096 0.53485495 0.4026595 0.28561968 0.5260547 0.1216855 0.25141594
-0.41791493 0.07699703 -0.505842 -0.023527026 -0.3544789 0.23785795 0.7374953 -0.5853525
-0.5826681 -0.036071915 0.41575637 0.3088898 -0.47743413 0.0039390204 -0.3041255 -1.0472645
-0.399067 -0.46314004 0.08564705 0.06508319 -0.5714164 0.0139009785 0.57214427 0.15931976
-0.25124004 -0.33779216 -0.4797712 0.50962645 0.16004442 -0.087127745 -0.5070084 -0.062439382
-0.3306737 0.3693319 -0.46119523 -0.3640022 0.11731584 -0.57445556 -0.23408346 -0.043380056
0.58772105 0.03586338 -0.13514611 -0.1932651 0.59681666 0.1470012 0.65312624 -0.36535203
1.6945174 0.058579978 0.6646742 -0.44611686 0.07061621 0.53886616 0.059907682 1.3541536
0.3738034 -1.056568 0.18744566 -0.20071974 -0.3022145 0.22264883 0.55985147 0.038492456
0.0146515565 -0.27861384 -0.37770247 0.57688093

linears.0.bias f4 [10]
00000000: 4a91 4ebd cfce 043f 9633 8bbe 5924 f6bd
00000010: d22b 0d3d d809 95be 9b2c 8cbc 6046 313e
00000020: cd70 513f 6f2d 593e
-0.050431527 0.51878065 -0.27187794 -0.120186515 0.03446562 -0.29109073 -0.017111113 0.17312002
0.81812745 0.21208738

linears.1.weight f4 [10, 10]
00000000: 2a61 acbe b083 f8be eca1 ab3e b4f1 e03d
00000010: 8148 0a3e cb81 53bd 4167 8abe 3c06 4b3e
00000020: 97b0 733e 5bf8 33be 0687 82be 82c6 3c3e
00000030: 15a8 9e3e bd39 a9be ccd4 bbbd 958e 973e
00000040: 2117 9abe 3079 f6be 1c53 e7be b277 763e
00000050: 4900 263e 202b 88bd 848d 333d 16cd 843e
00000060: 62d3 26bd dcef a13d da8b 373d 3e0b 163e
00000070: da8f 6cbe bd6d f03d a0b5 d0bd 6a2a c63e
00000080: d3d7 55bf eeca 0f3f a3f6 b43e a127 5abf
00000090: 2389 983f 0fd9 033f 6a4b 6c3f c2b8 b43d
000000a0: 61d3 ac3c 3c73 dabc 15d9 09be da42 b43e
000000b0: a2e0 73bf 9554 b5be b688 dcbe ef04 e83e
000000c0: f4aa fd3e ba3e 5e3e d665 a5be 5cd3 2dbd
000000d0: 6f32 8c3e 2a00 dcbc 796d 9bbe 70a8 aebe
000000e0: ffc3 b63e 3501 9c3e 61fe 56bd 62cc 4e3e
000000f0: f982 053f 8864 1ebf f6aa 3c3e 31ff 2e3e
00000100: a3aa 183f 8e2b 91be 0ceb 903e 39c8 2fbd
00000110: 0351 2fbe 295e fbbe b495 bd3d 9528 00be
00000120: e34d bc3d b6e5 24bd 6987 b2be 3444 63be
00000130: c2d9 45be c641 673e 4c8a 8e3e 4b0d ac3e
00000140: 03e0 7abd 6564 b9be 16ee 3abe d0cd c13d
00000150: 5643 74be f355 d0be ebce 80be 2b86 253e
00000160: 62a1 2f3e 7d66 b1bd f9cd 43bc 731a f0be
00000170: 7fe3 94be de65 1bbd 3cbf e03d 1369 163e
00000180: 9db0 febe d9e6 6e3e 6d01 82be 56a3 083e
-0.3366788 -0.4853797 0.33521974 0.10983601 0.1350422 -0.051637452 -0.270319 0.19826597
0.23797832 -0.17575209 -0.2549364 0.184351 0.3098761 -0.33051863 -0.09171447 0.2960097
-0.3009577 -0.48139334 -0.45180595 0.24069098 0.16211046 -0.066488504 0.04383613 0.25937718
-0.040728934 0.07907078 0.044811107 0.14652726 -0.2310175 0.11739681 -0.10190892 0.38704234
-0.83532447 0.5616902 0.3534442 -0.8521672 1.1916851 0.5150308 0.9230257 0.08824302
0.021096887 -0.026666276 -0.13461716 0.35207254 -0.9526464 -0.35416093 -0.43073052 0.45316264
0.4954449 0.21703616 -0.32304257 -0.042437896 0.27382228 -0.026855547 -0.30356959 -0.34112883
0.35696408 0.3046967 -0.05248869 0.20195153 0.52152973 -0.6187215 0.18424591 0.17089535
0.5963537 -0.28353542 0.28304327 -0.042915557 -0.17120747 -0.49095276 0.09257069 -0.12515481
0.09194543 -0.040258132 -0.34868935 -0.22193986 -0.1932135 0.22583684 0.27839887 0.33603892
-0.06124879 -0.36209407 -0.18254885 0.09463084 -0.23853812 -0.40690574 -0.25157866 0.16164462
0.17151406 -0.08662126 -0.011950963 -0.4689518 -0.29079816 -0.037938945 0.10973975 0.1468852
-0.4974412 0.23330249 -0.25391713 0.13343558

linears.1.bias f4 [10]
00000000: b235 db3d a745 1abc b708 ac3e 4fd8 d13e
00000010: 7dff 813e ce9c 4d3c 75c7 7bbe 6218 7dbe
00000020: 0286 75bd 72f3 083f
0.10703601 -0.0094160205 0.336004 0.40985343 0.25390235 0.012549592 -0.24587806 -0.24716333
-0.059942253 0.5349647

linears.2.weight f4 [10, 10]
00000000: 068d 0dbe 4635 5dbe e816 bfbe 0bf0 9c3e
00000010: 22f0 92be ea55 873e 8a12 f1bd ae9d 723e
00000020: da10 2bbe aab3 c03e 1b9e d13e eb16 2d3d
00000030: 6728 da3d 14d3 a8bd 3b64 b03e 2fb6 c83e
00000040: 75aa e53e 266b 8e3e a15c 443e a512 e7bd
00000050: 1f6a 3bbf a6a5 63be b886 48bd 6b54 89bd
00000060: 89bb 503e cc25 36be 83c9 a4bc 8ca8 96be
00000070: 6187 9a3c 47b2 88be ea8c edbe 4b89 7b3e
00000080: 9b94 b0be 641a 6dbe 256c 1c3d eddb 2a3e
00000090: 1559 1ebe 4dd1 b13e afa9 113e 2731 ca3e
000000a0: 9c26 cb3e 5890 b6be 4055 063f 4e7b 2e3e
000000b0: a26e c9be 8e35 0c3e 4358 483e d017 e9be
000000c0: 10cd 6a3e 5336 d63e 26ca 2cbe 9187 a33e
000000d0: 0c4b 6e3d d893 8dbe 7f1b a73e 480f 97be
000000e0: 4de6 7f3e 6d68 eebe e5ef 583e 6b52 ea3e
000000f0: 23c4 03bf 0705 bdbc 6711 253e c454 83be
00000100: 6662 9c3e 4ec1 97bc 0663 20be 819e 8abe
00000110: a9b2 853e 271f 943d d81c 92be 14b7 953e
00000120: 2d91 403d 1cc0 a2be f1c8 8fbc 7315 0d3d
00000130: 268c 97be 1d60 323e 227a 81be dd6d d7bd
00000140: 7d4d 663b 2f52 743e c63f fc3c 6285 e73e
00000150: 8ec1 5ebd 7b54 afbd 0dcf 4d3e ba90 4a3d
00000160: c35a dd3d 4d52 60be 63fe 9539 39d2 07be
00000170: 92c3 a0bc c153 0b3e 8f16 283e 9e71 b3be
00000180: a24a 883d 9e1c 0b3f 23dc 8d3e e1dc e53e
-0.13823327 -0.21602353 -0.37322164 0.30651888 -0.28698832 0.26432735 -0.11771114 0.23692963
-0.16705647 0.37637073 0.40940937 0.042258184 0.106522374 -0.08243385 0.3445147 0.39201495
0.4485661 0.27816123 0.1917596 -0.11282853 -0.732088 -0.22231159 -0.048956603 -0.067055546
0.20384039 -0.17787856 -0.02011562 -0.29425466 0.018863382 -0.26698515 -0.4639657 0.24564092
-0.34488377 -0.23154598 0.038189072 0.16685458 -0.1546367 0.34729996 0.14224885 0.39490625
0.39677894 -0.35657 0.5247383 0.17039225 -0.3934222 0.13692304 0.19564919 -0.4552598
0.22929788 0.4183832 -0.16873989 0.31939366 0.05817704 -0.27651858 0.32638165 -0.29503846
0.24990197 -0.46564046 0.21185263 0.45766005 -0.51471156 -0.023073686 0.1611992 -0.2565061
0.30543822 -0.018524792 -0.15662774 -0.27074054 0.2611287 0.07232504 -0.2853763 0.2924124
0.04701345 -0.31787193 -0.017551871 0.034444284 -0.29599112 0.17419477 -0.25288492 -0.10519002
0.0035141401 0.23859476 0.030792128 0.4521895 -0.054383807 -0.08561035 0.20098515 0.04945443
0.10808327 -0.21906395 0.00028609028 -0.13263787 -0.019624505 0.13606168 0.16414855 -0.3504762
0.0665486 0.5434054 0.27707013 0.4489508

linears.2.bias f4 [10]
00000000: 9de1 96be 5ce0 6f3e eadd c4be 0d1f 173e
00000010: 2256 003e 791e a33e 829a 78be d33c 6c3e
00000020: 15a2 0bbe 39db 8dbe
-0.29469004 0.2342543 -0.38450557 0.14757939 0.12532857 0.31859186 -0.2427769 0.23070078
-0.13636048 -0.27706316

linears.3.weight f4 [10, 10]
00000000: 3c51 39be fe2c 203e 1507 07bc d6d6 07be
00000010: 5861 1d3f 4356 213f 5434 17bf 3ded bbbe
00000020: 1f78 353f 485a a0be 3eaf b13d b315 a2bc
00000030: 107f f9bd 2180 0b3e 6cfc 323e 3b89 41bd
00000040: b303 83bd 7061 b73c c375 813d 71a2 bebc
00000050: 326c 623d e7a2 df3d 0633 b63e 6407 523e
00000060: 7bd7 293e 8d1b 913e ba42 95bd bac7 6a3e
00000070: 5440 463e 3210 4cbd 6046 90be 3c38 493d
00000080: 08fd 6b3d 9cdf f03d bef1 833e c99c 81be
00000090: 0078 64bc 6c73 963e 2c44 efbd 0c26 143e
000000a0: f370 893d 516e 963d 58d0 c63d 1204 9c3c
000000b0: 5857 023c 7296 983c 6314 2ebc 9857 813d
000000c0: a4a9 54bd e727 843d 1d1f 0abd 67e9 25be
000000d0: a4c0 06be 1a98 8bbc d92b 023d 4da6 9f3c
000000e0: 6858 d4bc 3b7d a6bd 9319 de3c a898 a83d
000000f0: f427 223e 8062 98be 870b 3bbe cc25 433d
00000100: e0c8 c7bc b8d5 23bf 3ba8 7d3d 7f05 93be
00000110: e88e 61be 6a8b 833e 280b 25be e4e1 c2be
00000120: e27d 993e 9a2e 12bd e07b c3bc b6ea a9be
00000130: 8169 d53e 28b1 2a3e 9b5a 30be 380d 96be
00000140: 50b0 a93e dff1 85be 260a 113f 899a 9c3e
00000150: f0fd 533e 7d16 f4be 1aea 0d3e 4fa7 d3bc
00000160: 4c73 02be 2bbb 1e3e c517 663e 542d 82be
00000170: fa66 cfbe 88de d53d 6d0d 83bd faba 003e
00000180: 6cc5 5cbe e7d1 063f 7ab5 24bd c1b1 1a3e
-0.18097395 0.15642163 -0.008241435 -0.13265547 0.6147666 0.6302225 -0.5906422 -0.36704436
0.70886415 -0.3131888 0.08676003 -0.019785738 -0.121824384 0.13623096 0.17479104 -0.047250014
-0.0639719 0.022385329 0.063212894 -0.023270817 0.055278964 0.10919743 0.35585803 0.20510632
0.16586106 0.28341332 -0.07288118 0.22927752 0.19360477 -0.049820133 -0.28178692 0.049125895
0.057614356 0.117614 0.25770372 -0.2531493 -0.013944626 0.29384935 -0.11682925 0.14467639
0.067109965 0.0734526 0.09707707 0.01904491 0.007955395 0.018626425 -0.010624978 0.06315535
-0.051919594 0.06452923 -0.03372108 -0.16202317 -0.13159424 -0.017040301 0.031780098 0.019488478
-0.025921062 -0.081293546 0.027111804 0.08232242 0.15835553 -0.2976265 -0.18266116 0.047643468
-0.024387777 -0.63997984 0.061928015 -0.2871513 -0.2202717 0.25692302 -0.16117537 -0.38062966
0.29978853 -0.035688974 -0.02386278 -0.33186883 0.41682056 0.16669142 -0.17222063 -0.2930696
0.33142328 -0.26161095 0.5665611 0.3058665 0.20702338 -0.47673407 0.13858834 -0.025836615
-0.12739295 0.15501086 0.22470005 -0.25425208 -0.40508252 0.10442835 -0.06399045 0.12571326
-0.21559685 0.52664036 -0.040212132 0.1510687

linears.3.bias f4 [10]
00000000: 5394 e73c 4532 45ba 830c 8b3e c704 05bc
00000010: c8ec a3bb af9c b93a be1e bdbc bd76 adbb
00000020: b8a0 77bd 00be 99bc
0.028268969 -0.00075224444 0.27157983 -0.008118815 -0.0050025918 0.0014161075 -0.023085948 -0.0052936957
-0.060456008 -0.018767357

proj.weight f4 [3, 10]
00000000: 6041 dfbd f529 5fbd e578 5cbc 42e7 2fbd
00000010: 6bc9 cc3c 2efe 26bd e688 3dbe 8e29 22be
00000020: 1802 80bc 88e6 97bd b699 c13d 557a e73c
00000030: 3e4d acbe 7465 203d 29f2 0f3c fc70 17bb
00000040: 5032 e9bb 8a7a 40bc 8346 2a3e 03ac 3dbd
00000050: bb6a e83c dbb2 efba ca4f 1ebe 5fa9 a53b
00000060: c877 cd3b 29fd 46ba 89e8 2cbe b733 b33d
00000070: 1eba db3d 50cf 3e3e
-0.10901141 -0.054483373 -0.013456558 -0.042945154 0.024998387 -0.04076975 -0.18509254 -0.15836164
-0.015625998 -0.07417017 0.09453146 0.028256575 -0.3365268 0.039159253 0.008785763 -0.0023108115
-0.0071165934 -0.011747966 0.1662846 -0.04630662 0.028371206 -0.0018287556 -0.15460125 0.005055591
0.0062703826 -0.00075908244 -0.1688558 0.08750098 0.107288584 0.18633771

proj.bias f4 [3]
00000000: 6227 6abc 7915 633d 51f3 ce3d
-0.014291616 0.0554404 0.10105003
